model/model.pt (torch, 85138 bytes, 56 tensors)

weight f4 [8, 3, 3, 3]
00000000: 0d95 c13e 583c b63d d461 863e 36dc 7f3e
00000010: dc20 3e3e 557e 803d 9305 433e 98d9 963e
00000020: ee4f 943e 214a c93d 9c1e 683e ce88 1bbc
00000030: 2d5b 1d3e 1076 c43e f9a8 ae3e 643e b33e
00000040: 6480 d83d 6141 843e 8313 b23e 98cb 8f3e
00000050: 084c b23e a0c0 a43e 8dc9 803e 89f8 613d
00000060: 8eaa ca3d 94d6 893e f012 213e 7462 153e
00000070: 5f98 5a3e 392b e53d 8cb9 983e 3207 853e
00000080: a2a2 8cbc 489f 863e b1a3 b6bd 0823 e43d
00000090: bbe0 c03d bc0a a4bc d827 1d3e d03d bc3d
000000a0: 2f8c 593e ff3b debd abb9 ae3d 4a51 393e
000000b0: 5dc8 01be 4d5c 703e 76fe 0ebd 1910 133d
000000c0: a164 493e c5f7 693b 70de a8bd c31b 433d
000000d0: 9221 4f3e 48ff ddbd 948d 463d 95ec 323e
000000e0: 9a23 f9bc 79a8 20bd 1258 373e fe33 1b3c
000000f0: ff07 e0bd 35b0 e13d 5891 de3d 854d 0c3e
00000100: 51d9 5d3d 4a02 5f3c e0ca 673d f5bd d73d
00000110: 45a8 043d 1c85 0e3d 2d6f b9bd a6ea 63bd
00000120: 9cd5 6abd 593d 4b3e ec4c 213e 8305 913c
00000130: e0f6 bebd 68e4 443d 04ca 2c3e 232f 333e
00000140: afb9 35bd 5261 3ebe 861d 003e 3f45 d1bd
00000150: a82d c03d f6c6 20bd be8d cfbd c6d6 b3bd
00000160: 798b 77be 6dce b93c 452e 00be 8caf 0cbe
00000170: bb0a 593e a904 19be 232a edbd e5a5 a9bd
00000180: 60bc 7fbe 1ba9 943d 7a98 0bbe 2704 3fbe
00000190: b650 463e 7365 07be 21ac d2bd ff15 3c3e
000001a0: 7bde 883d 9afc 3f3d 0abd 01be 8010 183e
000001b0: 471d b8bd 5fac f0bd 51b2 813e 40e8 37be
000001c0: 522d 62be 6e67 66bd 9f1b 60bd f0d5 9abe
000001d0: 7a64 33be 62ce 21be a304 d73c dc9d 573e
000001e0: 533d 6bbe 730e 9ebd 9c8d 983d ba2c 11be
000001f0: 9f74 3abe 8d43 9f3d 8bf9 03be 4c38 26be
00000200: e084 4c3e a29b 4ebe 42c4 56be 5674 333e
00000210: 6bf5 90be 4623 86bd 2064 91be b5a8 36be
00000220: 20b7 c7be 3a86 65be 753d e1be 7ef0 3dbe
00000230: 4626 f9be f4c1 8fbe 1cae fbbe 10e5 e7be
00000240: 12f2 c5be 9c95 9bbe 8256 c1be 35c8 27be
00000250: cf23 b4be 78b7 d7be 2429 09bf 38c5 43be
00000260: 3711 88be c59e 8ebe 3bae 30be 90e5 46be
00000270: 1ba2 7cbe f5d7 23be c3f8 e3bd 99e0 a8be
00000280: d011 79be 18bc bebe db41 11be 6799 0dbc
00000290: b9fc 7bbe e091 1a3e 4ce1 36be 5a40 b9bd
000002a0: 19dd 07be 112c d7bd ef19 643e f142 ce3c
000002b0: 5357 b13c 8932 8ebd fc9f 823d 31b5 b0bc
000002c0: 1ecf 80bc 5d97 a5bc c0cb f63d eebe 713e
000002d0: b70d babc db92 29be c5b8 b1bd 05fd f3bc
000002e0: f874 0b3e d326 aa3c e467 0bbe 09f1 23be
000002f0: 338b 463e 74fc a3bd dc11 963d b9ae 7ebd
00000300: 18f8 03be 8888 c8bb 1a11 bf3d c4fa a23c
00000310: 43ac 003e dfb9 2cbe 27cf 363e 3c64 3a3e
00000320: ec99 2b3e 4a37 023e 797c b6bd ef59 65bd
00000330: 7edf 87bd 62d9 c53c f3e0 9fbc ae3b 933d
00000340: 3892 243e dc1e 2cbd 088c 973d 5314 5d3e
00000350: 4c53 1d3e 365a 77bd a79b 9d3d 2288 083e
0.3780903 0.088982284 0.26246512 0.24986348 0.18567222 0.06274096 0.19045095 0.29462886
0.28967232 0.09828592 0.22667927 -0.009493066 0.15366812 0.38371325 0.3411329 0.35008538
0.105713636 0.2583113 0.3478051 0.28085017 0.34823632 0.3217821 0.2515377 0.055168662
0.09895812 0.26921523 0.1572988 0.14588338 0.21347187 0.11189885 0.2982906 0.25982052
-0.017167393 0.26293397 -0.089179404 0.11139494 0.09417864 -0.02002465 0.1534723 0.09191477
0.21244882 -0.10851287 0.08531507 0.18097416 -0.12674089 0.2347271 -0.03491064 0.035904024
0.19667293 0.003570066 -0.082455516 0.047633898 0.2022765 -0.10839707 0.048474863 0.17473061
-0.030412484 -0.039223168 0.1790469 0.009472845 -0.10939025 0.11019937 0.10867566 0.13701446
0.054162327 0.013611386 0.05658996 0.10534278 0.032387037 0.03479491 -0.09054408 -0.0556437
-0.05733262 0.19847621 0.15752 0.017702824 -0.093244314 0.048069388 0.16873938 0.1749845
-0.044366535 -0.18591812 0.12511262 -0.10218286 0.09383708 -0.039252244 -0.10134457 -0.08781199
-0.24174298 0.02268144 -0.1251765 -0.13738841 0.211955 -0.14943184 -0.115803026 -0.08283595
-0.24974203 0.07258817 -0.13632384 -0.18653928 0.19366726 -0.13222294 -0.10286737 0.18367766
0.0668306 0.04687176 -0.12669769 0.14850044 -0.08989959 -0.11751627 0.25331357 -0.1795969
-0.22087601 -0.056250982 -0.05471384 -0.30241346 -0.17518798 -0.15801385 0.026247328 0.21056312
-0.22972612 -0.077176 0.07448885 -0.14177218 -0.1820855 0.07776556 -0.12888162 -0.16232413
0.19972563 -0.20176557 -0.20973304 0.17524847 -0.2831224 -0.065496966 -0.28396702 -0.17837794
-0.390069 -0.22414485 -0.439922 -0.18548772 -0.48662013 -0.28077662 -0.49156272 -0.45291948
-0.38661247 -0.3038758 -0.37761313 -0.16384967 -0.3518357 -0.42132163 -0.535784 -0.19118202
-0.26575634 -0.27855507 -0.17253964 -0.19423509 -0.24671213 -0.1600035 -0.11131432 -0.32983854
-0.24323201 -0.3725288 -0.14185278 -0.008642531 -0.24608125 0.1509471 -0.17859381 -0.09045477
-0.13267936 -0.10506452 0.22275518 0.025178405 0.021648085 -0.069432326 0.06378171 -0.021570774
-0.015723761 -0.020213777 0.12050581 0.2360799 -0.022711618 -0.16559927 -0.0867782 -0.029783735
0.13618839 0.020770466 -0.1361385 -0.16009916 0.19389038 -0.08007136 0.07327625 -0.062178347
-0.12887609 -0.0061197914 0.09329434 0.019894965 0.12565713 -0.16867779 0.1785246 0.18202299
0.16757935 0.12716404 -0.0891046 -0.05599397 -0.066344246 0.024151508 -0.019516444 0.07189117
0.16071403 -0.042021617 0.07399756 0.21589784 0.15363806 -0.060388766 0.07695704 0.1333318

bias f4 [8]
00000000: 6386 b9be 2de9 823d 296e 51be 9bc6 a7bd
00000010: baf2 84bd c49d acbd 5b27 74bd 4edf 42bd
-0.3623534 0.06392131 -0.20452179 -0.08192178 -0.06491609 -0.08428529 -0.059607845 -0.04757624

weight f4 [8]
00000000: 6e2e 7e3f 50b6 843f 3f94 7f3f 1277 743f
00000010: 6948 833f 49b0 7b3f d05c 803f 4b3c 803f
0.99289596 1.0368137 0.9983558 0.95494187 1.0256473 0.98315865 1.0028324 1.00184

bias f4 [8]
00000000: af7a fbbc 1755 b0bc f8a7 4d3c 676c 64bd
00000010: 72fe 24bd d69d 3ebd f8da dabc 54b7 fa3b
-0.030698149 -0.021524949 0.012552254 -0.055767443 -0.04028172 -0.046537243 -0.02671574 0.007651249

running_mean f4 [8]
00000000: 55c9 5d36 083d f736 83dd 8634 1e55 d73f
00000010: b54f 5940 4a0e 5741 8c3e b53f 716d 3935
3.3048757e-06 7.3682786e-06 2.5120616e-07 1.6822851 3.39549 13.440989 1.4159713 6.907713e-07

running_var f4 [8]
00000000: 5da4 2d3d e0a4 2d3d 56a2 2d3d a75b 9d3e
00000010: fe8f 183f cd95 1e41 5aab f83d 67a2 2d3d
0.042393077 0.042393565 0.042391144 0.30733988 0.59594715 9.911572 0.12142058 0.042391207

weight f4 [20, 8, 3, 3]
00000000: 5a09 b0bd 572a c83d 1597 5abd 40f5 c93d
00000010: c433 e1bc dcb7 85bc 66ae 0a3c 752e 37bb
00000020: 1c72 333c 001e 2abd d239 1e3d e87b 4fbd
00000030: 743b 8cbc 42ad 9d3c b89d c53d 00cc 9dbd
00000040: 227e dcbd ba60 ddbd 8628 b03d 834a 28bd
00000050: bbb0 dabd d466 813d c055 68bd 5074 273d
00000060: db6a f1bd 9be6 ee3d 96a4 79bd c9f7 443c
00000070: 5243 053e 2573 37bd 0180 873c 61a7 6a3d
00000080: 9d2f ccbd 6968 babc 2925 f6bd a17b e2bd
00000090: 3304 02bc 1332 39bd ad99 ddbd 78bd 0d3d
000000a0: ad16 e7bd aa96 4cbd 6477 9dbd 5f4b fabd
000000b0: 7e22 aebd 76dc c93d eb46 273d cd25 cd3d
000000c0: ba43 b3bd d648 cabd 4c5a dc3c 9243 49bd
000000d0: 867f 73bd f236 83bd eea8 88bd 526a fd3d
000000e0: e06f ab3d b970 b73d 4510 74bd cb58 01bc
000000f0: 520c 4f3d 76ce 7fbc 40fa 4ebd fc03 6d3d
00000100: 673b bebc 2358 91bd f2d8 533d 73a8 7a3c
00000110: 24b3 9e3d ddb9 3d3d 2276 08bd 93ec 0c3d
00000120: d19d 28bc b221 44bd bd12 dabd 59dc 4fbd
00000130: f738 c5bd c58c 443b 22ef d73c 2f25 193e
00000140: 31a4 b0bd b471 c83d d4da 24bc b19b ee3b
00000150: 5ec2 d63d fc4c d9bc e9f9 acbd 7023 013d
00000160: 4dcd 92bc dc88 7d3d dd8e e5bc 4fb1 a53d
00000170: 2dc5 763d 2912 85bd 608f b7bd 7120 0dbd
00000180: a2d5 ecbd 5092 e93d 014f 70bd 4fad f2bd
00000190: 3005 09bd a431 31bd 57fe 84bc d31f 8dbd
000001a0: ef8d 05bd 0e85 b63c 56cc 83bd c8f3 95bd
000001b0: 363f 113d 9579 dcbd 0767 fbbd b895 8b3c
000001c0: 5420 553d 8486 e7bd c741 603d 038b a9bd
000001d0: a251 79bc b3a8 843d 3de3 a8bd ecae a5bd
000001e0: 3901 b63d 6fea 5ebd 2073 d3bd 8463 02be
000001f0: c668 9dbd 1339 a53d 15d3 b7bd f2d1 ac3d
00000200: d733 dabd 0b63 15bd a722 1fbd 159f e2bc
00000210: 2017 693d 962b b5bd c4fe b33d 6f6b 84bb
00000220: 7820 48bd 1edd de3b 506c 81bc 658a 11bd
00000230: ce41 893c 84d1 0ebc a43f 883d ad43 b4bd
00000240: 16f9 8a3d 16d5 3abd b901 e2bd ef8b 5abd
00000250: 8d47 a93d 1107 003e 4119 91bc 0b85 a93d
00000260: 0d1d f9bc a8dc 81bd 0234 6539 6340 a73d
00000270: 57c5 d03d 64d1 683d 253d e93d 8a23 dbbd
00000280: 67d0 f7bc 8624 a9bd dabf 41bd 00e3 933d
00000290: 5a19 94bd 1739 e83d 9bdb 8a3d 785d 553d
000002a0: 1307 acbd 3747 293d d4e5 3ebc f801 7fbc
000002b0: 4fb2 1fbb b1ae a8bc 484f f63a e4d8 fb3c
000002c0: 794e 903c 2a71 123d 8a51 fe3d 3111 70bd
000002d0: 8d52 6dbc 5324 77bd c9c6 263d 4428 163e
000002e0: 00b3 f1bd dc86 e6bd 3f46 1b3d bd44 bebd
000002f0: af14 ffbd 7456 29bd 1069 51bd d9fe 143c
00000300: b3d5 e03d bb0f ea3d c0bc dabd 5c84 c93d
00000310: 0ccf dd3d 7bbd 68bd 2de8 90bd 5901 f23c
00000320: b14f 203e 79c8 3d3e 172c 013e a471 883d
00000330: c124 ee3c a8e9 783e 8b77 8dbc 0acf a9bd
00000340: 4dca cebd 135a 283d 3e91 ed3b 0ef7 d03b
00000350: 9e1f a53b e4fa 613c 8c42 193d 3e30 eb3c
00000360: d47d 493c d06c 8c3d af21 b13d 5efa a23d
00000370: a366 eebc 0f25 773c 05ab 8d3b 37c6 dc3d
00000380: 5678 bcbd 05fb f93c e502 ae3c 4488 403d
00000390: ecee b33d bc22 0fbd 5a57 31bc 8d4a 8abc
000003a0: fade c93d a0ba c1bd dcd5 083d 19f5 943d
000003b0: 7141 a1bd 2778 4cbb d65b e7bd 1e72 70bd
000003c0: 39d0 563c 2e60 c3bc aada ed3d 314f 913d
000003d0: 8c60 723c 0153 c0bb fd8d e03d 9251 91bd
000003e0: e506 f63c dbe3 0abc a260 9e3d fe39 5e3c
000003f0: 5cf1 c8bd 5727 9d3d 16b8 e3bd 3a9c a1bd
-0.08595534 0.09773701 -0.05336674 0.09861231 -0.027490504 -0.016323023 0.008464431 -0.0027951275
0.010952499 -0.041532516 0.03862936 -0.050655276 -0.017118193 0.019247655 0.09649223 -0.077049255
-0.107662454 -0.10809465 0.08601479 -0.041086685 -0.1067824 0.06318441 -0.056722403 0.04088241
-0.11787959 0.11665078 -0.060947977 0.012021967 0.13013962 -0.044787545 0.01654053 0.05728853
-0.09970019 -0.022754865 -0.120188065 -0.110587366 -0.0079355715 -0.04521377 -0.10820327 0.03460452
-0.11283622 -0.049948372 -0.076887876 -0.12221407 -0.085026726 0.09856503 0.040839117 0.100169756
-0.08753152 -0.098771736 0.026898526 -0.049136706 -0.059447788 -0.06406964 -0.06672846 0.123737946
0.08370948 0.08957047 -0.05958583 -0.007894705 0.05054886 -0.015613189 -0.050531626 0.057865128
-0.023221685 -0.07096889 0.051720567 0.0152989505 0.07749012 0.04631983 -0.033315785 0.034405302
-0.010291533 -0.047883697 -0.10648105 -0.05074725 -0.09630006 0.0029991132 0.026359145 0.1495559
-0.08625067 0.09787312 -0.010061938 0.0072817435 0.10486291 -0.026525967 -0.08446104 0.031527936
-0.01792016 0.061898097 -0.028022224 0.080904596 0.060246635 -0.064976044 -0.089628935 -0.034454767
-0.11564185 0.1140486 -0.058669094 -0.11849462 -0.033452213 -0.04326023 -0.01623456 -0.068908356
-0.03260606 0.022280242 -0.06435458 -0.07321888 0.035460673 -0.107653774 -0.1227551 0.017039165
0.052032784 -0.11304954 0.05475023 -0.082784675 -0.015217217 0.06477489 -0.08246467 -0.08090004
0.08886952 -0.054422792 -0.10324693 -0.12733275 -0.076859996 0.08067527 -0.089758076 0.084384814
-0.10654419 -0.036471408 -0.038851406 -0.027663747 0.05690682 -0.08846204 0.08788827 -0.0040411274
-0.04885909 0.0068012616 -0.015798718 -0.035532374 0.016755011 -0.008716945 0.066527635 -0.08801971
0.067857906 -0.04561337 -0.11035485 -0.053356107 0.082656 0.12502696 -0.017712237 0.08277329
-0.03040936 -0.06340915 0.00021858516 0.08166578 0.101938896 0.056840315 0.113886155 -0.10700138
-0.030250741 -0.082589194 -0.047302105 0.07221031 -0.07231398 0.11339014 0.06780168 0.052091092
-0.08399787 0.04132768 -0.011651475 -0.015564434 -0.0024367755 -0.020591112 0.0018791938 0.03074307
0.017615544 0.035752453 0.12417896 -0.058610145 -0.014485014 -0.060337376 0.04071692 0.14663798
-0.1180172 -0.11256191 0.03790879 -0.092904545 -0.12455117 -0.041342214 -0.051125586 0.009093964
0.1097826 0.114287816 -0.106805325 0.09839699 0.10830507 -0.056821328 -0.07075534 0.029541658
0.156554 0.18533505 0.12614475 0.066623 0.02907026 0.24307883 -0.017268917 -0.08291443
-0.100971796 0.041101526 0.0072499802 0.0063771075 0.0050391695 0.013792727 0.03741698 0.028709527
0.012298066 0.06856692 0.08649003 0.0795791 -0.029101675 0.015084519 0.0043233656 0.10779994
-0.0920264 0.030515203 0.021241615 0.047004953 0.08785805 -0.034945235 -0.010824049 -0.016881252
0.098569825 -0.09459424 0.033407077 0.07273311 -0.0787381 -0.0031199546 -0.11296813 -0.05870258
0.013111168 -0.023849573 0.116139725 0.07095183 0.014793526 -0.00586927 0.10964582 -0.070956364
0.030032584 -0.008477177 0.07733275 0.013563631 -0.09811661 0.07673519 -0.11119096 -0.07891126

bias f4 [20]
00000000: f246 f4bd 27ef ab3c 5fc2 5c3c 335d 933d
00000010: e4c8 debd df31 943d a07c 32bc 5412 aebd
00000020: 6708 a23d 8d8c 983d ee64 79bc 43aa e63a
00000030: dadd 3cbe 14e3 643d 4e33 753d 0135 a03d
00000040: a25e ba3c cb6d c63d 5bf5 113d 7c55 b9bc
-0.11927594 0.02098806 0.013474076 0.07195511 -0.108781606 0.07236075 -0.010893971 -0.084995896
0.07911759 0.07448683 -0.015221817 0.0017598349 -0.18444005 0.05588062 0.05986338 0.0782261
0.022750203 0.0968891 0.03563438 -0.02262377

weight f4 [20]
00000000: c435 7b3f 972b 7a3f cb81 7e3f c5da 803f
00000010: 92a4 803f 8bad 873f 10ba 7f3f 779e 843f
00000020: cdb7 7c3f 1745 7f3f 1a95 7b3f 3805 843f
00000030: a0db 803f f148 7f3f d0ba 793f ea50 7e3f
00000040: da67 803f ee49 7a3f 821c 813f 1302 7e3f
0.98128915 0.9772276 0.994168 1.0066763 1.0050223 1.0599836 0.99893284 1.036086
0.9871796 0.997148 0.98274386 1.0314093 1.0067024 0.99720675 0.9755068 0.99342215
1.0031693 0.9776906 1.0086825 0.99221915

bias f4 [20]
00000000: 5d31 ad3b 8fdb 5dba 53f6 a3b9 b759 d93a
00000010: 7089 ebbb 2a45 30bc 7eae 5c3c 83ce aebb
00000020: 216b 4f3c ae19 4e3c 72af 69bb 1ada afb5
00000030: 0025 a33b f932 b738 1546 0bbb ef7d 81bb
00000040: 8866 96bc 9893 53bc 17ba 8b3b f0b2 10bc
0.0052854256 -0.0008463198 -0.0003127331 0.0016582523 -0.0071880147 -0.0107586775 0.013469337 -0.0053346767
0.012659819 0.012579365 -0.0035657552 -1.3101992e-06 0.004978776 8.7356144e-05 -0.002125149 -0.00395178
-0.018359438 -0.012913607 0.004264127 -0.0088317245

running_mean f4 [20]
00000000: e0a2 5d3e fa48 cf3e 4ac3 c93d 47ca e13e
00000010: df2a 9e3e 2318 4f3f 0669 3f3e 3421 183f
00000020: 54b9 113f 6950 ae3e 9e8c 873e 64fc f73e
00000030: 88cb 263e b81a b43e 1a7e df3e 86e8 733e
00000040: 0f56 113f f396 913e d5ad 823e 3f5f 813e
0.21644163 0.40485364 0.098517016 0.44099638 0.30892083 0.80896205 0.18692407 0.59425664
0.56923413 0.34045723 0.2647447 0.48434746 0.16288579 0.35176635 0.43650895 0.2381917
0.5677194 0.28435478 0.25523248 0.2526798

running_var f4 [20]
00000000: c656 8c3e 8f74 3f3f 6d94 a43d 88bb 073e
00000010: 712f 013f bd28 9b3e 8423 593e d301 4c3e
00000020: c048 373e 0871 143f cb98 cb3e 0cdc 123e
00000030: 0a1d 823d e5e2 d93d 3c6b 663f bae8 943e
00000040: 7895 bb3f 4c8c c53e e722 b33e 8329 aa3e
0.27409953 0.7478723 0.080361225 0.13255131 0.50463015 0.30304518 0.21204954 0.19922571
0.17898846 0.5798497 0.3976501 0.14341754 0.06353195 0.1063898 0.90007377 0.29083806
1.4654989 0.385836 0.34987566 0.33234796

weight f4 [10, 20, 1, 1]
00000000: 3cb5 92bc 4fb0 0d3e 9dcf 08bd 9a7b 3a3e
00000010: a17e 133e 8852 873e 288d d4bd ec04 5d3e
00000020: b7b9 11be 1f44 32be 4c94 0cbd c5db 923e
00000030: 77a0 06bd 5968 cc3d b01d eebc e6ac d93d
00000040: 37e6 483e 3e44 263e ba34 843d e260 953d
00000050: 2760 23bd bc2d 24be d365 2d3e e0a3 05be
00000060: b5d7 19be e9f6 41bd d4cf f23d a35e 263e
00000070: 89dd 30be bf51 a1bd 638e 483e 3cd0 14be
00000080: 6eb0 27be 0d28 873d 2bc6 503e 5c70 253d
00000090: 0aaa 263d e87d abbd bd6b 22be b21b e13d
000000a0: cceb 0f3d 31b1 65bd 3574 2d3c ad0a 0d3c
000000b0: e0cd 35be 6742 133e 24fe 7cbe 2489 023e
000000c0: 3e2a 453e 7a2b 25bd bc24 97bd 00c0 243e
000000d0: 5fbc 0ebd 715c ffbb de86 3c3c c492 ddbd
000000e0: 8f94 8e3e 3362 c5bb bab0 57be 28d0 d6bc
000000f0: ff4e 55be 60e1 f73d a07e 08be 4771 0c3e
00000100: f13b bc3d 0fb5 7c3c 5bbb ca3d c0d2 313e
00000110: 0e6b 3e3d 437c 64bd 61be 3ebd 1caf 523e
00000120: 3118 743d 7ca1 f1bb d47b 383e ed38 813c
00000130: 9325 943b b31c 6ebe 3bba a53d b3d8 4fbe
00000140: dd69 363e 8d79 24be a781 523d 36ae 003e
00000150: 84a7 023e a424 69be c6bb c23c 4d9c 85bd
00000160: 8a03 42be 54e9 a7bd b67b 803d ebfb ac3d
00000170: 8d7b 4ebe 049d 0f3e 42c6 f93d 279f 793d
00000180: 94f3 413e 76e4 d6bc f28f 3a3e bbc9 673e
00000190: 8ca2 3c3e 92a4 bdbd c46e 58be 1f0e b43d
000001a0: 2287 2d3e 3b57 46be 0dec 763c 186a 68be
000001b0: 7e1d 68be 524a 393e dfc9 693a 4626 41be
000001c0: 7a1e 593d a30e b53c 4f48 163e 30fc dabd
000001d0: 4bfd a03d 7aea 2f3d 60e2 a93d ee4a 49be
000001e0: 87c9 9d3d 6e49 143e 5821 5dbe e6d1 343e
000001f0: 7ff5 cc3d e44e 993c a4ec 1dbe 4e49 613e
00000200: 6a31 183d e116 0bbe 3bb1 e13d 856c 213e
00000210: 5146 d33d e65d 853d bff8 e5bd 2ce4 2c3d
00000220: 024b 033d 58b8 a33d 2bcd 01be d191 b4bd
00000230: a4db fbbc 99d7 eb3d 200b 10be 25c5 31be
00000240: 13ec 173d 33c9 ae3e 72e9 48be 054c 0f3e
00000250: 36a6 d8bd adba e1bd b494 21bc 6d5d 54be
00000260: 888d e93d 334c 26bd 018c 03be 7478 273d
00000270: 7161 4fbc 6e28 d4bd db23 f9bd f22c 44bd
00000280: d29f 893d 9cc7 1c3e f44f 61be 9f45 603e
00000290: 600f 02bd 437c cf3d a5d1 473d e5f3 263e
000002a0: e3cc 0d3e df96 993a 10f0 45be 3e0c 8e3e
000002b0: d06f f93d e614 813c 0d12 e5bc 75a9 403d
000002c0: 49c3 5dbe b5a6 8e3d 617a 83bb 2af1 a9bd
000002d0: eff5 87bc d636 8fbd 952d cd3d dd9c 173e
000002e0: 30a4 55be 8b82 aa3d 299a 9b3d 2ece fd3d
000002f0: 5586 b8bd a8c9 4dbe cc45 043e 6839 0cbe
00000300: 9119 773e b461 7a3e 29dc 463e 3012 2dbb
00000310: 6972 723d b91e 193e 443d 1abe 4b81 52be
-0.017908685 0.13836788 -0.03340112 0.18211213 0.14403774 0.26430154 -0.10378486 0.21583909
-0.14231001 -0.17408799 -0.034321114 0.28683296 -0.032867875 0.0998084 -0.02906689 0.10628681
0.1961907 0.1623697 0.06455369 0.072938696 -0.03988662 -0.16033071 0.16933374 -0.13050795
-0.15023692 -0.047354612 0.11856046 0.16247039 -0.17272009 -0.0787692 0.19585566 -0.1453256
-0.16375896 0.06599436 0.20388095 0.040390357 0.040689506 -0.08373624 -0.15861411 0.109916106
0.035136983 -0.056077186 0.010586788 0.008608502 -0.17754316 0.14380799 -0.24706322 0.12747627
0.19254395 -0.040324666 -0.073800534 0.16088867 -0.034847613 -0.0077930023 0.011506764 -0.10819009
0.27847716 -0.006023669 -0.2106351 -0.026222304 -0.20830916 0.12103534 -0.13329554 0.13715087
0.091911204 0.015424027 0.098990165 0.17365551 0.046488814 -0.055782568 -0.04656828 0.20574611
0.059593383 -0.0073739868 0.18015987 0.015774215 0.0045210808 -0.23253135 0.08092161 -0.20297508
0.17813821 -0.16061993 0.051393177 0.12566456 0.12759215 -0.22767884 0.023771178 -0.06523953
-0.18946663 -0.08198801 0.06273596 0.08446487 -0.20164318 0.1402474 0.12196018 0.060942795
0.18940574 -0.026231986 0.18218973 0.22635548 0.18421382 -0.09259905 -0.21136004 0.08791756
0.1694608 -0.19369213 0.015070927 -0.22696722 -0.226675 0.18094757 0.0008918326 -0.18862256
0.05300758 0.022101706 0.14676021 -0.10692632 0.07860812 0.042948224 0.08295131 -0.1965749
0.07704454 0.14481136 -0.21594751 0.17658195 0.10007762 0.018714376 -0.15422302 0.2200062
0.0371565 -0.13582946 0.11020132 0.15764053 0.10316146 0.0651205 -0.11229085 0.04220979
0.032053955 0.07994145 -0.12675922 -0.08816875 -0.030744381 0.11515731 -0.14066744 -0.17360361
0.037090372 0.34137878 -0.19620302 0.13993843 -0.10578577 -0.11021934 -0.009862114 -0.20738764
0.11403948 -0.040600013 -0.12846376 0.040886357 -0.012657509 -0.10359274 -0.12165042 -0.047894426
0.067199364 0.1531052 -0.22003156 0.21901558 -0.031752944 0.10131123 0.048783917 0.16303976
0.1384769 0.0011717937 -0.19329858 0.27743715 0.1217953 0.015757035 -0.027962709 0.047036607
-0.21656527 0.069653906 -0.0040123914 -0.082979515 -0.016596762 -0.06992881 0.1001846 0.14805932
-0.20863414 0.0832568 0.07597763 0.12392841 -0.09009997 -0.20096457 0.1291725 -0.13693774
0.24130847 0.24451333 0.19419922 -0.0026408546 0.05919114 0.14953126 -0.15062433 -0.20557134

bias f4 [10]
00000000: cd07 a83d 2f03 533c a24c bbbd a279 4abe
00000010: 5962 253e 29c3 4ebe 8b0f bdbd 6f71 eb3d
00000020: 19e6 07bd f89a 193e
0.08204613 0.012879177 -0.09145476 -0.19772962 0.16150798 -0.20191635 -0.0923148 0.11496245
-0.033178423 0.15000522

weight f4 [10]
00000000: 9ad4 813f 1fb4 833f 85b6 813f c926 7d3f
00000010: d85e 803f a4ee 7c3f b4c6 7a3f f7b4 823f
00000020: 8373 7a3f f13b 7d3f
1.0143006 1.0289344 1.0133826 0.98887306 1.0028944 0.98801637 0.97959447 1.0211476
0.97832507 0.9891959

bias f4 [10]
00000000: aa9f c7bc 5dd1 08ba bfb7 e2bc 7fe6 df3b
00000010: a2a3 143c 00d2 92bb ebf2 f43b 67a9 863a
00000020: e54c 5bbb b28d 75bc
-0.024368126 -0.0005219186 -0.027675508 0.006832897 0.009072216 -0.0044806004 0.007475247 0.0010273875
-0.003346258 -0.014987396

running_mean f4 [10]
00000000: 2ab0 663e d129 413e ef65 8e3e de14 2e3e
00000010: dcc1 093f d4cd c63e 4f3a e93d ca1d 9b3e
00000020: 0423 dc3e c462 b43e
0.22528139 0.18863608 0.27812144 0.17000148 0.5381143 0.3882891 0.113880746 0.30296165
0.42995465 0.35231602

running_var f4 [10]
00000000: 059a 523e 8c31 4e3e 1fa6 d63d 101f 0c3e
00000010: 6c8e 9a3f 2ded 363f 27f9 ce3d 6603 ac3d
00000020: f434 453e 97c9 843e
0.20566566 0.20136088 0.10480904 0.13683724 1.2074714 0.7145565 0.10106116 0.08399086
0.19258481 0.2593505

weight f4 [20, 10, 3, 3]
00000000: 9d49 743d d48a 86bd 7a81 53bd 5c92 9e3d
00000010: 94db 00bd 41f1 fb3d df1e a63d b8ef 0d3e
00000020: f58c 87bd 652e c9bb 90de cc3d 3c8e ae3d
00000030: 4efc f33c 2adf a6bd 3193 54bd a6d5 973d
00000040: 0fd2 88bc d4ba 543c 1cc8 37bd 609a 21ba
00000050: b2f7 07be 1cd5 09be 6bb6 d9bd f0f9 3cbc
00000060: ef24 cbbc 269e 153c 657d 30bd cf84 6d3d
00000070: 6d59 903d 96ac c2bd a336 c93c 2cf5 3c3d
00000080: fadf 9cbc 20ef 98bd 6030 a8bd 00eb fbbc
00000090: fcae a33c 6770 ed3c 1733 aa3b dfb1 233c
000000a0: 03db da3b 0714 ba3d bccf 9dbd 4413 373d
000000b0: cd14 da3d d6ac d73d cef9 a0bd e1cd b4bd
000000c0: 69bc 6dbd f224 223b eaab 00bd 7d31 17bd
000000d0: 4723 afbd df65 4c3d 7436 753d 43e4 a8bd
000000e0: 0938 ddbd 330b 533d c83a d93d 90fc 94bd
000000f0: 6ad0 893d 800d 1cbd 1ef1 a83d 78bd 7cbd
00000100: ea04 5d3d 7972 9fbd cf4c aabd 4ade 35bd
00000110: 52f7 acbd f382 a7bd 1aa3 60b8 a501 b13d
00000120: e4da f43c d48f 85bd 948f 93bd a0b9 e9bb
00000130: 0297 5e3d 35cb b7bd 3335 b5bd da1b f9bd
00000140: 84cc 70bd b909 b93d d228 10bc 6ea3 953b
00000150: 606e ae3d 3606 09bc ce26 dcbb 7c3b 193c
00000160: 31ab 293d f97c 0e3e 52a2 813d 4ebe b9bd
00000170: 7547 ba3d 0fbe dabd b650 973d c95f 88bd
00000180: c26a 8b3b 85b0 a03c 4fb0 51bb 92cb acb9
00000190: 5da8 903d 100a c23d 1f1e 893d 4168 c93d
000001a0: d6ed 46bd ca41 dabd 6354 ab3c 4ac5 b83d
000001b0: 254d ed3d 0b90 a3bd 929c b5bd 6bec d7bd
000001c0: 67c3 e2bd fff3 cbbd 8222 74bd 1bd0 a53c
000001d0: 9689 a93c 6303 333c 3fbb 953d fd8b bd3d
000001e0: ec58 7d3d e6ed 21bd 9bab 613d 2de7 e73d
000001f0: 4a8b 9e3d 69b8 713d d909 bcbd 2399 01bd
00000200: 7a76 a63c a95d 8b3d c246 c63d 2f8a c93d
00000210: 93aa 883d 90b9 d53d 78db 983d 4d34 c63d
00000220: 7ca3 9a3c d9fb 6e3c 0d3a 963d 2d18 c1bd
00000230: 87d0 043d 3199 b7bc 0a99 1abd f7ab e23d
00000240: 60ed 96bd 408d 773d ea46 c1bd a299 793d
00000250: 23ed c5bc 0c73 9fbc ec24 dc3c 3b70 1dbd
00000260: fccc 8dbd 7a8a ae3d 8218 fabc 6b25 8fbd
00000270: 734f 9ebd c6ec cdbd 386d 7dbd 214e 07bc
00000280: 77e4 013d abf5 eebd 3b1a 9e3d 3c5b 6c3d
00000290: 18b8 00bd ca09 843d 9c85 d93c 01d6 0bbd
000002a0: c6c9 66bd 692d 823d 401f 133d cdda 8c3d
000002b0: 7763 c0bd a8fb 943d 0724 d0bc 2b5a 8abd
000002c0: b930 87bc f5df 133d 75b8 653d 1eed de3d
000002d0: 8ea1 863d d240 f2bc c9c8 a13d e844 d03c
000002e0: 59ba 8cbd 6bde de3d ce62 5d3d 8288 c5bd
000002f0: 0252 18bd 8aa3 d4bc c2ff 54bc 11c6 673d
00000300: 6a30 3cbd eb17 afbd 5387 bd3d 7d4b 9bbd
00000310: 1b5a 94bd bdd7 f33d 30ed 3dbc f809 5fbc
00000320: 0e49 aa3d edd4 aabd cd18 a43d e41c 3cbb
00000330: 0a13 ac3c 4744 9b3d d7ed cc3d 9417 41bd
00000340: 4dc6 07bd 538b f83c 1343 5f3c 01e8 593d
00000350: 38dd c23d 26f0 3ebd 1916 f23d 600b 8dbd
00000360: 0c46 243c 350a da3c c56e 9cbd 2c5a dabd
00000370: 7cca 023d b812 ba3c e590 cdbd 527b 303d
00000380: e3da 1c3b 44be a23c 64b1 b5bd 9dbe ab3d
00000390: f38c 6a3d 1bcb 103d 78c5 aebd 8a12 2a3d
000003a0: 144d 1cbd 865b 233b fe26 c43c 7de9 4cbd
000003b0: c20d 44bd ceeb 1d3d 177b c73c 9511 273e
000003c0: 9cd6 043c f0e3 353b ee7f 75bd 51e3 a53d
000003d0: 31f9 093e a4e6 90bd 8c90 c7bc a027 a4bc
000003e0: b5e9 e73d a80c 503d 12c5 afbc 76a5 95bd
000003f0: 9b48 5cbd cdc7 193e ab74 693d bb61 c6bc
0.059640516 -0.06569448 -0.05163715 0.077427596 -0.031459406 0.12301875 0.08111357 0.13860977
-0.06618682 -0.006139564 0.10003388 0.08523223 0.029783394 -0.08148034 -0.051898185 0.07413797
-0.016701726 0.012983996 -0.044868574 -0.0006164666 -0.13278082 -0.13460201 -0.106304966 -0.011534199
-0.024797885 0.009131944 -0.043088336 0.057987984 0.070483066 -0.095055744 0.024562186 0.04613225
-0.01914977 -0.074674845 -0.08212352 -0.030751705 0.0199809 0.028984262 0.0051940787 0.009991138
0.0066789403 0.09085851 -0.07705638 0.044696108 0.10648499 0.10531013 -0.078601465 -0.08828331
-0.05804101 0.002474126 -0.03141395 -0.03691243 -0.085516505 0.04990184 0.059866384 -0.082466625
-0.108017035 0.051524352 0.10606915 -0.07274735 0.06729205 -0.038098812 0.082491145 -0.06170413
0.053959765 -0.07785506 -0.08315431 -0.044401444 -0.0844561 -0.081792735 -5.3557662e-05 0.08642892
0.029889531 -0.06521574 -0.0720512 -0.007132724 0.05434323 -0.089743055 -0.088480376 -0.121635154
-0.05878879 0.090350576 -0.008798795 0.0045666015 0.08517146 -0.008363297 -0.006718493 0.009352561
0.041423026 0.13914861 0.06329788 -0.09069501 0.090956606 -0.10680782 0.07388441 -0.066588946
0.00425467 0.019615421 -0.0031995957 -0.00032958068 0.07063363 0.094745755 0.06695198 0.09834338
-0.04856666 -0.106570795 0.020914262 0.09022005 0.1158698 -0.079864584 -0.08867754 -0.1054314
-0.11072426 -0.09958648 -0.05960322 0.020240834 0.020695489 0.0109261 0.07311105 0.09255216
0.06185238 -0.03953352 0.055095296 0.1132339 0.07741411 0.059013758 -0.09181566 -0.031640183
0.020320166 0.06804974 0.09681465 0.098408096 0.066731595 0.10435784 0.07463735 0.09677944
0.018876784 0.014586412 0.07335291 -0.09428439 0.03242543 -0.022411915 -0.037743606 0.11067956
-0.073694944 0.06043744 -0.09437354 0.06093753 -0.024160927 -0.019464038 0.026873074 -0.03843711
-0.06923863 0.08522506 -0.030529264 -0.06989559 -0.077299975 -0.100549266 -0.061871737 -0.0082583735
0.03171202 -0.11667951 0.07719847 0.057704195 -0.031425565 0.064471796 0.026552968 -0.034139637
-0.05634477 0.063563175 0.035918474 0.068776704 -0.093939714 0.07274562 -0.025407804 -0.067554794
-0.016502725 0.036102254 0.056084115 0.1088507 0.06573783 -0.029571924 0.07899625 0.025423482
-0.068714805 0.108822666 0.054049306 -0.096451774 -0.037187584 -0.025956888 -0.013000431 0.056585375
-0.04594461 -0.08549484 0.09254327 -0.075827576 -0.07243749 0.11906383 -0.011592194 -0.013613217
0.08314715 -0.083413936 0.08012543 -0.0028703744 0.021005172 0.07581382 0.10006302 -0.047141626
-0.0331481 0.030339872 0.013626832 0.05319977 0.095148504 -0.046615742 0.11820621 -0.06886935
0.010026466 0.026616195 -0.07638315 -0.1066173 0.031931385 0.022714004 -0.10037402 0.043086357
0.0023934178 0.019866116 -0.08871725 0.08385966 0.057263326 0.035349946 -0.08533758 0.041521586
-0.038159445 0.0024926378 0.023944374 -0.05002736 -0.047864683 0.03855496 0.024350686 0.16315301
0.0081078075 0.002775427 -0.059936456 0.08099998 0.13473965 -0.07075241 -0.024360918 -0.020038426
0.11323873 0.05079332 -0.021456275 -0.0730695 -0.05378018 0.15017624 0.05699603 -0.024216523

bias f4 [20]
00000000: 8e88 a63d 9d1c e63d e1fe bb3d 362d 163d
00000010: 5e16 163d eabe 49bd b062 4bbb 76b6 5e3d
00000020: 00d0 c23d 0041 32bd cd0c 8bbd 7e75 4dbd
00000030: 93e2 f33d 4865 bbbd 2338 eb3c 94c4 b43c
00000040: 7b22 eabc fcd7 6b3d 7ac2 033d f569 9ebd
0.081315145 0.11235926 0.09179474 0.03666421 0.036642425 -0.049254335 -0.0031034164 0.054373227
0.09512329 -0.04351902 -0.06789551 -0.050160877 0.1190845 -0.09150177 0.028713292 0.022066392
-0.028580895 0.057579026 0.03216789 -0.077350534

weight f4 [20]
00000000: 54b7 813f 79ba 7c3f 2071 803f 093c 7f3f
00000010: 6ffb 7c3f b273 833f a5fd 803f b315 7f3f
00000020: f11f 803f d50b 7f3f 1320 823f b7f7 7b3f
00000030: 968b 803f 78ed 813f 305d 7c3f bbde 7d3f
00000040: 2527 7d3f dcb5 7d3f 3ad7 7f3f 9043 803f
1.0134072 0.98722035 1.0034523 0.9970098 0.9882116 1.0269682 1.0077406 0.99642485
1.0009748 0.9962743 1.0166038 0.9842486 1.0042598 1.0150595 0.9857969 0.99167985
0.98887855 0.9910562 0.99937785 1.0020618

bias f4 [20]
00000000: b457 13ba 9ae2 0cb7 e327 d73b 8af9 be3b
00000010: 05ae d1bb 8ffb 04bb 58c1 06ba 67ef d8bb
00000020: 9c3c 6cbb 8f80 c63b c368 253c 4489 343b
00000030: d8d4 233b 7d91 04bb c684 32bb 1585 f9ba
00000040: 8f53 033a 045f d8bb 4db6 2bba a04f da3b
-0.0005620674 -8.39741e-06 0.006566034 0.005828087 -0.0063989186 -0.0020291542 -0.0005140505 -0.006620336
-0.0036046868 0.006057806 0.010095778 0.0027547637 0.002499869 -0.002022832 -0.0027239784 -0.0019036854
0.00050097046 -0.0066031236 -0.0006550297 0.006662324

running_mean f4 [20]
00000000: 583b bd3e a12c 143f ff36 053f 7b31 813e
00000010: 8f2b a93e a632 1b3f a6ac ee3e a84d ab3e
00000020: 28e7 a73e ab22 b33e f252 ac3e 8634 d63e
00000030: 6b1f c73e 3ee8 6a3e a526 e03e 84be 803e
00000040: 14f3 d33e 98db 5b3e f64a c63e df83 df3e
0.36959338 0.578806 0.5203704 0.25233063 0.33041045 0.6062416 0.46616095 0.33457685
0.32793546 0.34987387 0.33657032 0.41836947 0.38891158 0.22940156 0.43779483 0.25145352
0.4139639 0.21470487 0.38729066 0.43655297

running_var f4 [20]
00000000: eea0 f53e cb1b 843f 7a67 3f3f 059c 853e
00000010: 8ba1 083f e6f5 023f 6355 223f 2cbd 153f
00000020: ce55 b83e e996 c03e adbf 9a3e f801 3d3f
00000030: c46f 143f b8ce 953e 7b3f 3c3f 022f 853e
00000040: 4403 f03e b622 4f3e 1e70 423f fa56 7c3e
0.47974342 1.0320982 0.7476727 0.26095596 0.53371495 0.5115646 0.6341154 0.5849178
0.36002964 0.37615135 0.30224362 0.7383113 0.5798304 0.29259276 0.73534364 0.26012427
0.4687749 0.20228085 0.7595233 0.24642554

weight f4 [32, 20, 1, 1]
00000000: f042 5bbe 7e85 39bd 0f94 c73d 5214 ffbd
00000010: e296 b13b 561e 11be fba5 293d b6b5 2abd
00000020: 027e 643d 1abf 32be f102 373e 2c0b 2ebe
00000030: 9c2f b13d ca5f 803c 4828 41be 1be7 1fbe
00000040: eea4 213d cb33 da3d 9db0 c1bd ff46 803d
00000050: 18e5 0abc 9da8 5c3b 423a 6f3d cf4f 633d
00000060: 1d8f 15be a732 a83d fa6c 8dbd 68a0 08be
00000070: c88a 413d 4446 a4bd ffd7 cc3d 0efa cbbd
00000080: bbbf 413e ef2c 533e cd62 bc3d 7752 c6bd
00000090: cc1b 64be 5786 4d3c 1f67 563e 7a91 3d3e
000000a0: ed22 a7bb af03 5bbe 9a20 c8bd f82b a6bc
000000b0: 24c4 4dbe 472d 71bd 9089 883b 2411 bcbb
000000c0: b3c0 a3bd 7a0a 353d 6b40 c1bd 7cf0 473e
000000d0: cbc0 913d 6c55 6abe bb0b a4bc bc60 a53d
000000e0: c301 8c3d 243b 33be b3a6 bc3d ae67 a9bd
000000f0: 515c 1dbe 957a c8bc ab39 55be 57a5 213e
00000100: b347 893d 692f 233e 223f 44be 2417 5b3e
00000110: a963 483d 02c1 6d3d 4cd4 4fbe 07c2 10be
00000120: 38e2 43be d6c6 5a3d 0432 203e 9fc7 e1bd
00000130: 7a1d df3d 34fb 41be 66db d73d f41a 063e
00000140: 48cc 11be 277d 84bd 6ac5 a53d 1a28 92bc
00000150: 1f33 323e 8365 c83d 3c84 523e 932a 703d
00000160: 32f5 ccbd 03bb 313e 24b4 5c3e 424e 443e
00000170: 2391 183d 2dfa a6bc 63f6 11be 3549 63be
00000180: bc5b dfbd 210a 053e 772f 3b3e 00b0 bbbd
00000190: 85b0 ec3d 085b 3bbe 23b2 963d fc1d c3bc
000001a0: ef38 bcbd 9bf4 673e 17fd 613e 156a 633c
000001b0: 1de8 ddbd 5c1f 303e 7910 4b3e 0d6b 53bd
000001c0: 26cf 56be 0e13 aabd 85b6 39be 99f2 a6bd
000001d0: c121 d63d 8fd6 acbd fcac b63c 8006 903d
000001e0: 2637 6c3e d113 543e 56a0 28be cad9 28bc
000001f0: ace5 15be 7176 34be 33fc d03d 5062 aabb
00000200: 33f0 a4bd e464 0e3e 518c 49be 26cd 4ebd
00000210: ba39 94bd c1ab 12be 1ed1 3fbe 40ff 27bd
00000220: 2e7b fabd 8d48 9fbd b38f 223e 0af7 01bd
00000230: 953d 82bd ccd9 e1bd 5527 873c 96b1 733b
00000240: be73 c33d a36e bb3d 14d8 6abd 21a2 cc3d
00000250: 5e10 5d3e 88e3 003e 7e44 0a3e 3c36 063e
00000260: f3b9 3f3c b54e bc3a c945 0abe f856 333e
00000270: 6a27 b13d 1711 b8bc fdf9 1abc dc77 cebd
00000280: f1f2 e33d 7a17 bcbd a417 96bc 6bed 91bd
00000290: f6e3 cfbd c57a 003e a669 3f3e c9a1 c23d
000002a0: ce54 063c 7285 08be 8b18 9d3d 6807 333e
000002b0: 3a76 c23d 9c4b 5a3d f920 d83c fd3c 113e
000002c0: e4e7 173d 124d e73d 0bba ecbd 9db1 7b3d
000002d0: 71f4 08be cb1d 5cbe fd14 2cbe 80f0 18be
000002e0: 03fb 0c3d 4b82 c13d f324 40be fafc 57be
000002f0: 6daf c33d e1f4 59be 5e2b aebc ece9 febd
00000300: c555 75bd 86c7 84bd 0246 4f3e 0f7c 043c
00000310: 9de4 11bd 77e1 2a3d f73e c33d 5037 433e
00000320: e132 3abe 6349 c1bd 4f19 47be 4a51 153d
00000330: 74ac 91bd 25c1 533e 89c0 913d 4b57 5bbe
00000340: 2900 68bd 8a02 ecbd c3cb ae3d 4c86 16be
00000350: 6339 d83b b5fa ed3d 1dc7 f03d 360f 4a3e
00000360: 2675 1ebd 6aa0 f13c 78fd b0bd f69d 443e
00000370: 4167 283d ee46 cabd a5d8 123d 7c7b 5cbe
00000380: ab2a c6bc 208b febd 3121 da3d b7e4 1bbe
00000390: 83a2 08be 6bca 143e 8701 383e 37c1 e7ba
000003a0: 824f 0b3d b09c 173d 6b41 bfbc 9da2 ef3c
000003b0: 75a5 cbbd cccd 573e 50e1 2bbe f976 473e
000003c0: b74e a7bc d3dd b4bd 503d 5d3e f222 363e
000003d0: 7b6f c7bd c116 b13d 6e3e 143d 08e6 0ebe
000003e0: a6a2 113e 4d14 313e fb84 5e3e 058a 0c3d
000003f0: c822 3cbe fa09 0fbe d865 30be 4da1 023e
-0.21412253 -0.045293324 0.09745037 -0.12455048 0.005419598 -0.14171728 0.041418057 -0.0416772
0.055784233 -0.17455712 0.17872216 -0.16996449 0.08651659 0.015670676 -0.18863022 -0.15615503
0.03946393 0.1065441 -0.094575144 0.062635414 -0.008477472 0.0033669837 0.05840517 0.055496033
-0.14605375 0.08212786 -0.06905551 -0.1334244 0.047251493 -0.080212146 0.100021355 -0.099598035
0.18920796 0.2062261 0.09198532 -0.09683698 -0.22276229 0.012544236 0.20937775 0.18512526
-0.005100599 -0.21388124 -0.09771843 -0.020284638 -0.20094353 -0.05888107 0.0041667894 -0.005739348
-0.07995739 0.044199444 -0.09436115 0.19525331 0.071168505 -0.22884148 -0.020025125 0.08075091
0.068362735 -0.17503029 0.09211483 -0.082717285 -0.15367247 -0.024472514 -0.2082278 0.15785728
0.06703129 0.15936054 -0.19164708 0.21395546 0.04892317 0.058045395 -0.20295829 -0.14136516
-0.19129264 0.05341228 0.1564408 -0.11024403 0.10894294 -0.18943483 0.10539894 0.1309622
-0.14238083 -0.064691834 0.08094294 -0.017841388 0.17402314 0.09784987 0.20558256 0.058634352
-0.10007705 0.17356496 0.21553093 0.19170478 0.03724779 -0.020382965 -0.14254145 -0.22195895
-0.10906169 0.12992145 0.18279825 -0.09164429 0.11557106 -0.18296444 0.07358196 -0.023818009
-0.09190547 0.22651903 0.22069202 0.013880272 -0.10835288 0.17199463 0.19830503 -0.051615763
-0.20977458 -0.08304416 -0.18136032 -0.081517406 0.10455657 -0.08439361 0.022299282 0.0703249
0.23067912 0.20710684 -0.16467413 -0.010305831 -0.14638394 -0.17623307 0.10204353 -0.005199708
-0.08053627 0.13905674 -0.19682433 -0.050488614 -0.07237573 -0.14323331 -0.18732116 -0.04101491
-0.12230526 -0.0777751 0.1587513 -0.031729735 -0.06359402 -0.110278696 0.016498247 0.0037184707
0.095435604 0.09151962 -0.057334974 0.09991861 0.21588275 0.12586796 0.1350269 0.13106626
0.011702049 0.0014366718 -0.13503183 0.17513645 0.08650096 -0.022469087 -0.009459016 -0.10081455
0.11130322 -0.09184165 -0.01832182 -0.07125362 -0.10150902 0.12546833 0.18692645 0.09503514
0.00819893 -0.13332155 0.07670697 0.17483294 0.09495206 0.053294763 0.02638291 0.14183421
0.037086383 0.11293997 -0.115589224 0.061448682 -0.13374497 -0.2149574 -0.16804881 -0.14935493
0.03441907 0.094486795 -0.18764095 -0.21092597 0.09554944 -0.2128482 -0.021260913 -0.12446961
-0.05989625 -0.064833686 0.2024155 0.0080862185 -0.035618413 0.041718926 0.09533494 0.19064069
-0.18183471 -0.094378255 -0.19443248 0.036454476 -0.07112971 0.20679148 0.07116801 -0.21420018
-0.056640778 -0.11523922 0.08534958 -0.14699668 0.006598638 0.11620084 0.11756728 0.19732365
-0.03868594 0.029495437 -0.08642095 0.19200882 0.041114096 -0.0987681 0.03585114 -0.2153148
-0.024190268 -0.1242888 0.10650862 -0.15223967 -0.13343243 0.14530341 0.17969333 -0.0017681484
0.03401137 0.037014663 -0.023346623 0.029252345 -0.09943668 0.21074599 -0.16785169 0.19478978
-0.020423276 -0.08831372 0.2160542 0.17786768 -0.0973806 0.08646918 0.03619235 -0.13954937
0.14222202 0.172929 0.21730416 0.034311313 -0.18372643 -0.1396865 -0.1722635 0.12756844

bias f4 [32]
00000000: 4348 083e 52aa b9bd 2fc0 35bd fb3b 8ebd
00000010: 6d57 5d3d f283 58be 2aca 983d a410 5a3e
00000020: 7bb8 25be ec83 15bc 2f4e d4bc 2ac6 603e
00000030: 3333 4ebe ba0e 523e 566e e0bd 7860 103e
00000040: f4e8 e53d 0276 17be 277b 27be fb25 853d
00000050: 4dc3 1abd 4a7c 2d3e 6b30 323e a683 e73d
00000060: fd3e 24be b27f 3c3e 5733 c53d 8b55 3abc
00000070: f1f1 5f3e 6a6a ab3c 2f87 cfbd 4755 d13d
0.13308816 -0.09065689 -0.044372734 -0.06945034 0.054038454 -0.21144083 0.07460435 0.2129541
-0.16183655 -0.009125691 -0.025916187 0.21950594 -0.20136718 0.2051343 -0.10958545 0.140993
0.11226073 -0.1479111 -0.16355573 0.06501385 -0.03778391 0.16941944 0.17401282 0.11304407
-0.16039653 0.18408087 0.09628933 -0.011372934 0.21869637 0.020924766 -0.10133206 0.102213435

weight f4 [32]
00000000: 7e16 803f 6056 7f3f 858e 803f 02c0 7e3f
00000010: 5c59 7b3f 91ed 7d3f 5a88 813f 437f 7f3f
00000020: 76cb 7f3f b28d 803f cc2d 813f 0f9c 803f
00000030: 0952 803f e739 7b3f 2a91 803f 793f 803f
00000040: 455b 803f c0e9 7d3f 0390 7d3f d841 803f
00000050: 4729 803f b176 803f 5724 813f 79e8 803f
00000060: 6a15 803f 408a 833f 0663 7d3f 2118 7a3f
00000070: 30f7 823f 0b42 7d3f 2d00 7f3f eac9 7f3f
1.0006864 0.9974117 1.0043494 0.9951173 0.98183227 0.9919062 1.0119736 0.9980356
0.9991983 1.0043242 1.0092101 1.0047625 1.0025035 0.98135227 1.00443 1.001937
1.0027853 0.991848 0.9904787 1.0020094 1.0012597 1.0036222 1.0089215 1.0070945
1.0006535 1.0276566 0.9897922 0.9769307 1.0231686 0.989289 0.99609643 0.9991747

bias f4 [32]
00000000: 9518 1abc a94f 6d3b a161 e239 6d93 d83b
00000010: 37d7 baba e180 603b 0aaf edbb 7258 a23b
00000020: a72b 1b3b 7cb4 0dba 68d6 10bc 9a21 90ba
00000030: d03f c03b 807b 293b 8eb1 953b ee20 403b
00000040: d571 cf3a 67e5 683b ba8f f3bb abe2 d03b
00000050: e945 7b3b 8363 6ebb 82fa 6f3b ae60 99bb
00000060: ed68 51ba eb19 0abb f138 de3b 87ec f0ba
00000070: eba5 b23a 5a68 9fbb fc8d 9e3b 1521 8e39
-0.009405275 0.0036210811 0.00043178818 0.0066093714 -0.0014254813 0.0034256505 -0.0072535323 0.004954391
0.0023677142 -0.00054056174 -0.008840181 -0.0010996342 0.005866982 0.0025860965 0.0045682853 0.0029316503
0.0015826771 0.0035537125 -0.007432905 0.006374677 0.003834123 -0.0036375232 0.003661782 -0.0046807146
-0.00079883524 -0.0021072577 0.0067816903 -0.0018381038 0.001362977 -0.0048647346 0.004838703 0.00027109

running_mean f4 [32]
00000000: f448 a43e c864 173e a857 9b3d 60ae 5a3e
00000010: 1a6e 4b3e 6da5 493e eb9e 813e caf2 ad3e
00000020: a0cb 983d a63b 803e 34e5 7c3e 7b61 a93e
00000030: f624 563e 6ad6 ba3e cd36 6c3e bee1 873e
00000040: f877 7b3e 7b13 fd3d 32fc 223e c510 913e
00000050: 03f0 543e 7089 983e 228e b93e 8c6e a53e
00000060: aff0 0b3e 3956 bd3e 6cac 723e bc34 1f3e
00000070: 445f 9d3e 1afc 523e e6bc 2e3e 0b58 6a3e
0.3208691 0.14784539 0.075850785 0.21355581 0.19866219 0.19692011 0.25316557 0.33974296
0.074607134 0.25045508 0.24696809 0.33082184 0.20912537 0.3649171 0.2306778 0.26539415
0.24557483 0.12357231 0.15916517 0.28333107 0.20794682 0.29792356 0.3624125 0.32310903
0.13666032 0.36979845 0.23698586 0.1554746 0.30736744 0.20603982 0.17064247 0.22885148

running_var f4 [32]
00000000: ff0f 003e 8d70 de3d e212 8e3d 86c1 233e
00000010: 2730 503e 7dd8 223e 1d9d 3e3e 29ae 9f3e
00000020: 9119 c73d e521 d53d 32a1 f93d 2fa9 143e
00000030: fccd 823e c3ed 813e da21 813e 1bc9 613e
00000040: 1d23 593e a093 053e c348 b63d f790 403e
00000050: 285e b53e 0a1d 7d3e db34 813e 2bdd 1f3e
00000060: 325e 1f3e 9bd6 5e3e 6216 0c3e 5a3d 1f3e
00000070: fc06 8e3e 186d 233e 927d 553e 4311 353e
0.12506102 0.10861311 0.06937195 0.15991792 0.20330869 0.15902896 0.18614621 0.3118756
0.09721673 0.104068555 0.12188949 0.14517663 0.2554778 0.2537671 0.2522114 0.22049372
0.21204801 0.13044596 0.08900597 0.188053 0.35423398 0.24718109 0.25235638 0.15611713
0.15563276 0.21761553 0.13680413 0.15550748 0.27739704 0.15959585 0.20848683 0.17682366

weight f4 [10, 32, 3, 3]
00000000: 1d5a d63c c7d9 9cbd e5b2 4dbd 6e72 76bd
00000010: f5d9 123b 4595 bf3c f196 47bd 9577 6d3d
00000020: 977b 033c 9984 a23c b913 b3bc c7ce 89bd
00000030: 7352 883c a2a1 97bb 4a9e 75bd 6d5c 62bd
00000040: b1aa 663d 3557 52bd 3ecc ab3d 133b 5f3c
00000050: ead8 92bb f2e3 59bc 700d 5f3d f2c7 0e3d
00000060: 0179 56bc f80e 0d3d eda8 ae3d 1e5c 1cbd
00000070: 4b2f 69bd 5433 8b3c ee05 42bd c624 103d
00000080: 6893 473c 47b6 19bc e708 3dbd 2561 263b
00000090: 7f80 673c 0943 e43c 5708 0c3d 6b40 0e3d
000000a0: 0dc3 bb3c 95ff 8abc b97a 2f3d 7425 17bd
000000b0: 3dec 1ebd de4f 563c c360 86bd 34b1 18bd
000000c0: 7c72 31ba a6f5 e33c 5e2d 9c3a be4b 0c3b
000000d0: 7e90 02bd 1561 89bc 83de 223d f915 723d
000000e0: f8b2 a53d 6e53 943c 8253 bcbb 918a 0d3d
000000f0: d781 013d 9122 ce3d 66fb ea3d f011 cd3c
00000100: 4ed4 05bd 293f 4abc c2e3 253c 9e4b 52bd
00000110: c4de f4bc 3d81 703d b2c3 7bbd 697f 52bd
00000120: c7e5 c83a e8dd 3ebd 85c0 3b3d 7f14 813c
00000130: 78ca 2239 4d52 88bc 442b 10bd 7bea ddbc
00000140: d64a 253c 061b adbc d6ba 4e3d 0b8d 30bc
00000150: 82d9 6f3d 31e0 47bc 504e 5abd 1b25 45bd
00000160: 4d7e 0abc 1734 2dbd e344 833b e469 efbc
00000170: 7ba2 e5bc 9f4d 293d 03f7 00bc 8d6c 5fbb
00000180: b72a 96bd f1a0 103d 2ded 11bd ada6 23bd
00000190: 2313 65bd d06b 6dbd e301 d13c 1085 4d3c
000001a0: ffd7 143d 96f0 bf3c 90d4 cb3c 38ec 72bd
000001b0: 715c 873d 39f8 383d 99b3 2bbd f84d dd3b
000001c0: 583a 34bd ad6d 58bc d9fb 813d 94ef 8cbc
000001d0: 683b 893b fa62 383c 58e7 de3c d8cd b43b
000001e0: 3cd6 393d da49 03bd d353 9f3c 66db 203d
000001f0: aa64 01bd b6cb f63c 9a54 553c 4045 93bd
00000200: 3e09 ab3b 12ed ddb8 e5f1 93bc 71b3 453d
00000210: f39e 4a3d 9f74 f5bc d186 663d 2be8 963c
00000220: 1255 333d 0449 6ebd 60ae d13c 8975 743d
00000230: 9ab4 103d 00e9 963d 0cfb f73c 4b45 823d
00000240: a916 6c3d e38c 263c 4df8 b93c b2c1 7fbc
00000250: eb9d d93b 1072 14bd eb61 e93c 21a3 9cbc
00000260: 96eb 19bd ee30 01ba f7bb 303d 9314 2cbd
00000270: 749c 3dbc d72f 95bd 5576 1d3c 9fb7 b3bc
00000280: b65c 093d c219 18bd f24f e63b e186 21bd
00000290: 3d71 6dbc f113 363d 2d3d 8d3c c82e ad3c
000002a0: 4b6f 313d 1340 b7bc 9e68 aebc c7f4 b8bc
000002b0: 4ae2 8dbc 77e7 90bd eede 06bc daec 09bd
000002c0: 5cf2 3ebd db37 5ebc b598 90bd d5dc 443c
000002d0: 6c31 4abd b783 f2bc cafc c63c cefc baba
000002e0: 1c14 743d 0e4f 02bd 79da ed3b dba3 9a3b
000002f0: 502a e43c 3ce3 51bd c46c c93b 7759 14bd
00000300: 14bf c03c 2e9a 353d 5d84 dc3b 3c39 38bb
00000310: bf50 12bd 638a 5fbc fa27 0f3d 2076 933c
00000320: 6fe3 343c 4d56 093d 4dcc 3ebd e23b 68bc
00000330: da5e 2f3d 64ff 24bd 2a4f 493b 5642 b1bb
00000340: 9955 843c e073 b83c 6702 1cbd 6466 32bd
00000350: 1c68 9bbd 9705 e33c 6a26 803c 9e05 aabd
00000360: d3fc 92bb a21a 37bd b00e 863d 193b ecbc
00000370: 7bab 363d 899f f53c 18d0 b93b 2071 ba3c
00000380: 2862 8d3d e42f e0bb 2612 5f3d faf6 813c
00000390: 471f c73c 4987 91bc 2dfb 743d c570 8cbc
000003a0: f704 a43b c497 bf3d 2c0a 433c 9fc8 0bbd
000003b0: 0084 0fbd f93c 273b 9653 2e3d f466 8dbd
000003c0: 07d8 473c 307f f73c 4e5a 05bd 4a6f 453d
000003d0: d9a5 2d3c 1072 fbba c942 36bd 41a0 b83d
000003e0: d961 31bd d381 b33b 0c81 9abc e6d2 0bbc
000003f0: a8f1 9f3b dac2 f9bc 2f9c 273d 1602 af3d
0.026166016 -0.07658725 -0.050219435 -0.060167722 0.0022407745 0.023386607 -0.048727933 0.05797537
0.008025072 0.019838618 -0.02185999 -0.06728893 0.016640877 -0.0046274224 -0.05996541 -0.055263925
0.056315128 -0.0513527 0.083885655 0.013624924 -0.0044814246 -0.013298975 0.054456174 0.03485865
-0.013090373 0.034438103 0.08528314 -0.038173787 -0.056929868 0.016992249 -0.047368936 0.03519132
0.0121811405 -0.009381837 -0.046151068 0.0025387492 0.014129757 0.027863996 0.03418764 0.034729403
0.022920156 -0.016967574 0.042841647 -0.036900952 -0.038799513 0.013080565 -0.065614246 -0.03727837
-0.00067690737 0.027827095 0.0011915376 0.002140745 -0.03187608 -0.016769925 0.039762985 0.059102986
0.08090776 0.018106189 -0.0057472596 0.034555975 0.031617966 0.10065187 0.11473732 0.025032967
-0.032673173 -0.01234416 0.0101251025 -0.051341645 -0.02989138 0.058717 -0.061465926 -0.05139104
0.0015327268 -0.046598345 0.045837898 0.015756844 0.0001552495 -0.016640807 -0.03519751 -0.027089348
0.010088643 -0.02113105 0.05047115 -0.010775815 0.05855704 -0.0121994475 -0.05329734 -0.04813109
-0.008452964 -0.042286005 0.0040060147 -0.029225297 -0.028031578 0.04133379 -0.007871392 -0.00340918
-0.07332366 0.035309736 -0.03562658 -0.039953876 -0.055926453 -0.057964146 0.025513595 0.012543932
0.036338802 0.02343015 0.024881631 -0.059307307 0.06609429 0.0451586 -0.041919325 0.0067536794
-0.044000953 -0.0132097425 0.06346864 -0.017204084 0.00418799 0.011254067 0.027209923 0.0055177025
0.045370325 -0.032052852 0.01944915 0.039271735 -0.03159014 0.030126434 0.013020659 -0.07190943
0.0052196076 -0.00010582259 -0.01805968 0.04826683 0.049467992 -0.029962836 0.056280915 0.018421253
0.0437823 -0.058175102 0.025595844 0.059682403 0.035328485 0.0736866 0.030271076 0.06360873
0.057638798 0.010165426 0.022701407 -0.015610145 0.0066411397 -0.03624159 0.028489074 -0.019120755
-0.037578188 -0.00049282506 0.043148007 -0.04201181 -0.011572946 -0.07284515 0.009610732 -0.021938143
0.03353568 -0.03713394 0.007028573 -0.03943527 -0.01449233 0.04445261 0.017241085 0.021140471
0.043319028 -0.02236942 -0.02129012 -0.022577656 -0.017319817 -0.070753984 -0.0082318615 -0.033673145
-0.04661785 -0.013563122 -0.070603766 0.012015541 -0.04936354 -0.029603822 0.024290461 -0.0014266015
0.05958949 -0.031813674 0.00725871 0.00471924 0.027852207 -0.0512421 0.006146999 -0.036218133
0.023528613 0.04433649 0.006729646 -0.0028110286 -0.035721537 -0.013643834 0.034950234 0.018000662
0.0110405525 0.03352957 -0.046581555 -0.014174433 0.042815067 -0.040282622 0.0030717351 -0.005409519
0.016154097 0.022516191 -0.03808823 -0.04355468 -0.07588217 0.027712626 0.015643317 -0.08301853
-0.0044857054 -0.044703133 0.0654577 -0.028836774 0.04459713 0.029983299 0.0056705587 0.02275902
0.069034874 -0.0068416465 0.054460667 0.015864838 0.024306906 -0.017764704 0.059809852 -0.017143616
0.0050054747 0.09355119 0.011904281 -0.034126874 -0.035037994 0.002551852 0.042560183 -0.069044024
0.012197501 0.030212015 -0.032556824 0.048201837 0.010598623 -0.0019183774 -0.044497285 0.09014941
-0.043306205 0.0054781227 -0.018860362 -0.008534169 0.0048811026 -0.03048842 0.040920433 0.0854532

bias f4 [10]
00000000: bd25 4f3c 796c e63c 840c 1abc 5124 eebc
00000010: a93e eabc 7322 6cbd a402 fbbc dc2f fe3c
00000020: 98ad 8fbd b55d a0bd
0.012643275 0.028127896 -0.009402398 -0.029070051 -0.028594332 -0.05765004 -0.030640908 0.03102868
-0.07015532 -0.07830373

weight f4 [10]
00000000: c9d0 7c3f 0761 7f3f 5e79 793f 6344 7e3f
00000010: 34c4 833f f7e8 813f d773 803f 0ffb 823f
00000020: 0edf 803f 4c43 763f
0.9875608 0.99757427 0.97450817 0.993231 1.0294251 1.014922 1.0035352 1.0232867
1.0068071 0.96196437

bias f4 [10]
00000000: 595b f73c 2653 97bc a0a1 473d 2862 933c
00000010: 03f9 b5bc 18a0 9f3c 7af7 fabb f75e bd3b
00000020: a53a babc 0178 88bc
0.030194925 -0.018472265 0.048738122 0.01799114 -0.022213465 0.019485518 -0.007658896 0.005779143
-0.022733042 -0.016658785

running_mean f4 [10]
00000000: a20c d73e f3e0 c13e 4183 e83e e196 053f
00000010: 6505 e73e a263 043f a13f 183f bd17 d13e
00000020: aa86 093f 08cd b83e
0.42001826 0.37866935 0.4541264 0.5218335 0.45121303 0.5171453 0.5947209 0.40838423
0.53721106 0.36093926

running_var f4 [10]
00000000: a96b 293f 4885 ac3e 878f de3e a7e9 103f
00000010: 9013 353f 2ade 2c3f 96c5 3f3f d417 9f3e
00000020: e739 473f 6dcd 6f3f
0.661799 0.33695436 0.43468878 0.56606525 0.70732975 0.67526495 0.7491087 0.31072867
0.77822727 0.9367283

weight f4 [10, 10, 1, 1]
00000000: 831f 20bc a6ab b0be 4dba 843e c377 97be
00000010: c588 22be 72be 4a3e a7aa d23d fe6b 293e
00000020: 1f60 09bd 9a90 e6bd 6a23 35be 0ca3 22be
00000030: 93f2 34be cfa8 5ebe 2d94 a83e 3203 efbc
00000040: 0bbf 023d f81b 683e 908d d93d 047a 493e
00000050: 327f 16bc feca 6b3e 1506 b53d c48f 7abe
00000060: 8b0c 8e3e a200 4c3e 7e44 8f3e 8264 183e
00000070: ce97 9ebe ae1c 07be ceab 4f3e a67e 69be
00000080: aecc 07be cc92 57be 4274 623e aae8 83be
00000090: 4019 123e f9e7 403e 74ad 1b3e 0679 91be
000000a0: 65fc 43bc 92fc 2d3e 8efe 913b 2fc6 82be
000000b0: 6fec d8bd 05f2 8a3e 725f ae3e b840 30bd
000000c0: 7840 0e3d 450a 39bc 3785 97be 0da2 df3d
000000d0: 5017 eabd 67f2 52be b4a0 813c 97b2 2cbe
000000e0: 247d 24bc 3510 94bd 857d 2abd 9b47 573e
000000f0: 3cbd 463e e2ab 073d c7db 77be 7a16 b63e
00000100: 71dd 85bd fa4f 5e3e 787c 913e c9be 883e
00000110: d742 3e3c 03be 4ebe 8349 87be 864e e5bd
00000120: 7740 56be 5f38 8bbe 057f a33e f36b 2e3e
00000130: d716 9e3d 2d28 88bd a662 84be 7f49 2d3e
00000140: 2823 ee3d 7b12 383e 454f 84be 0fa1 45be
00000150: d0a0 97bd 2480 04be 4228 6abd 7c12 59be
00000160: 099b 833e 498e 7fbe 47b8 913d 80a0 10bc
00000170: fa9b 3dbe e397 823d ac30 053e 8a1c 383e
00000180: 794f 883e 4b66 0abe 4757 883e 7b28 26be
-0.009773138 -0.34505957 0.25923386 -0.29583558 -0.15872486 0.19799212 0.102864556 0.16545102
-0.033538934 -0.11258049 -0.1768929 -0.1588251 -0.1767066 -0.21744083 0.3292555 -0.029176328
0.031920474 0.22666919 0.10622704 0.19675452 -0.009185599 0.23026654 0.08839051 -0.24468905
0.27743945 0.19922116 0.27981943 0.1488209 -0.30975193 -0.13194534 0.20280382 -0.22802219
-0.13261673 -0.21052092 0.22114661 -0.25763446 0.14267445 0.1883849 0.15202886 -0.28412646
-0.011962031 0.16990879 0.004455394 -0.25541827 -0.10591971 0.2713777 0.34057194 -0.04303047
0.03472945 -0.011293952 -0.29593822 0.109195806 -0.11430228 -0.20600282 0.0158237 -0.16865002
-0.0100396015 -0.07229654 -0.04162361 0.21023409 0.19408125 0.033122905 -0.24204932 0.35564023
-0.06536377 0.21710196 0.28415275 0.26708058 0.011612616 -0.20189671 -0.26423272 -0.11196618
-0.20923029 -0.27191445 0.31932846 0.17033367 0.077192 -0.06648288 -0.25856513 0.16922568
0.11627799 0.179758 -0.25841728 -0.1929972 -0.074037194 -0.12939507 -0.0571673 -0.21198457
0.2570422 -0.24956621 0.07115226 -0.008827329 -0.18516532 0.06376626 0.13006848 0.17979637
0.26623133 -0.13515584 0.26629087 -0.1622638

bias f4 [10]
00000000: afea 55be bc00 c33d 84f0 99be ee22 8f3d
00000010: f626 03be 48d6 cbbe 2db1 3ebb 1542 5c3e
00000020: cd03 e73d af15 b23d
-0.20890306 0.095216244 -0.3006631 0.06989084 -0.12807831 -0.3981192 -0.0029097304 0.21509583
0.11280022 0.08695542

weight f4 [10]
00000000: 448b 813f 3b7b 7e3f a4c7 813f 89cf 803f
00000010: ee4a 7d3f 1c60 823f a13c 7d3f 6739 793f
00000020: 7c66 813f 65ad 7d3f
1.0120625 0.99406785 1.013905 1.0063335 0.9894246 1.018558 0.9892064 0.97353214
1.0109401 0.99092704
