model/model.pt (torch, 85138 bytes, 56 tensors)

weight f4 [8, 3, 3, 3]
0.09152231 0.049747605 0.08308091 -0.085692994 -0.13289891 0.04835752 -0.01280819 0.16064449
0.0609994 0.057191238 0.140333 0.0036424932 -0.066685125 0.19766821 0.114501014 -0.065794006
0.15394238 0.118060194 0.07090667 0.1596187 -0.039764598 0.13962147 0.13725738 -0.052037034
0.123252824 0.012934017 -0.0068527716 0.32578713 0.028699784 0.19647744 0.16888784 0.08079151
-0.008346522 0.22262453 0.10134563 0.0273396 0.21195112 0.02120267 0.039592184 -0.08826749
-0.045053758 0.16097538 -0.02176822 0.2403545 0.024652148 -0.07354541 0.022886628 0.12606923
0.038554568 0.00019383286 0.16761525 -0.13306022 -0.09227976 -0.015378407 -0.08537428 -0.34889203
-0.3210899 -0.13683146 -0.12521768 -0.28139174 -0.16076916 -0.1047471 -0.104296535 -0.26694965
-0.2506944 -0.047324225 -0.20214856 -0.052368496 -0.23472267 -0.05583636 -0.21939583 -0.370135
-0.32890096 -0.053098332 -0.21898527 -0.20262872 0.042142447 -0.29291695 -0.16798784 -0.13817954
-0.14014412 0.18400636 -0.022286927 -0.013671007 0.036046036 0.021525921 0.13470852 0.001540672
-0.024530966 0.30358583 0.08042312 0.02520774 0.26303166 0.051230904 0.17584959 0.33376345
0.097294316 0.111562476 0.1764387 -0.04733041 0.16653913 0.120210685 -0.03964155 0.25322726
0.25314096 0.14428736 0.016583223 0.20307495 0.09414711 0.04421684 -0.03796669 0.12629938
-0.06418617 -0.10304391 -0.032524876 0.32379854 0.013412564 0.06913242 -0.11317336 0.113071956
0.018314788 -0.021901835 -0.07772794 0.052886803 0.0964651 -0.035052843 0.09233974 -0.1043076
-0.19200772 0.058930337 -0.10999986 -0.19676255 -0.061671477 0.06318808 -0.041858695 0.18637389
0.14705703 0.3390496 0.15561168 0.19730474 -0.004498329 0.32649183 0.15064912 0.12801537
0.01881352 0.036970157 0.14517327 -0.021618918 0.10900517 0.0111894505 0.33136174 0.3244955
0.067339845 0.11819156 -0.043447997 -0.02420975 0.072293766 0.32777432 0.21950433 0.20303884
0.06515864 0.21749309 -0.06559163 -0.3911151 -0.5476333 -0.27862415 -0.29090416 -0.7321546
0.09357562 -0.63219863 -0.50635266 -0.13275108 -0.6134451 -0.5307267 0.03661608 -0.3728929
-0.39210758 0.16004333 -0.41702974 -0.6884482 -0.14417483 -0.52994066 -0.45388928 -0.13473324
-0.30679348 -0.2598036 0.07557503 -0.23411661 -0.2705349 -0.086623535 -0.20450205 -0.016599735
0.0124768475 -0.07211803 0.07469196 -0.27587587 -0.3217819 -0.06828764 -0.09544313 0.022327812
-0.24035136 -0.21044715 -0.055639777 -0.0130159315 -0.014030483 -0.13972858 -0.04599609 -0.22099937
0.024695326 0.021624563 0.038189657 0.005824576 -0.14082192 -0.30337608 -0.20959419 -0.18269823
00000000: 0d70 bb3d 25c4 4b3d 5326 aa3d cf7f afbd
00000010: a716 08be 8912 463d 71d9 51bc fd7f 243e
00000020: 82da 793d 5c41 6a3d 74b3 0f3e e5b6 6e3b
00000030: 3692 88bd 8969 4a3e 827f ea3d 02bf 86bd
00000040: 12a3 1d3e 8bc9 f13d 8437 913d 1673 233e
00000050: 34e0 22bd eef8 0e3e 338d 0c3e c924 55bd
00000060: fa6b fc3d 33e9 533c 378d e0bb 92cd a63e
00000070: cf1b eb3c 6231 493e eff0 2c3e 0576 a53d
00000080: dabf 08bc aff7 633e 4c8e cf3d 4cf7 df3c
00000090: b709 593e 39b1 ad3c 6a2b 223d 96c5 b4bd
000000a0: 4a8a 38bd bbd6 243e 4453 b2bc 7d1f 763e
000000b0: 4df3 c93c fa9e 96bd bd7c bb3c 4b18 013e
000000c0: 65eb 1d3d 9d3f 4b39 55a3 2b3e f040 08be
000000d0: 2cfd bcbd b7f5 7bbc b6d8 aebd faa1 b2be
000000e0: e565 a4be 8c1d 0cbe 1039 00be 9412 90be
000000f0: aca0 24be a685 d6bd 6c99 d5bd a0ad 88be
00000100: 045b 80be 0cd7 41bd 0800 4fbe 5980 56bd
00000110: 245b 70be abb4 64bd 4da9 60be 5682 bdbe
00000120: b565 a8be a37d 59bd ad3d 60be e77d 4fbe
00000130: 8f9d 2c3d 36f9 95be 0105 2cbe f07e 0dbe
00000140: f181 0fbe 2a6c 3c3e 1393 b6bc 5cfc 5fbc
00000150: 02a5 133d 2157 b03c 08f1 093e 60f0 c93a
00000160: 2af5 c8bc 9a6f 9b3e e0b4 a43d 7680 ce3c
00000170: 16ac 863e 7fd7 513d ea11 343e 0be3 aa3e
00000180: 3e42 c73d de7a e43d 59ac 343e 88dd 41bd
00000190: 3c89 2a3e 0531 f63d 2e5f 22bd 01a7 813e
000001a0: b19b 813e 11c0 133e 8ad9 873c e1f2 4f3e
000001b0: 33d0 c03d b81c 353d f682 1bbd a054 013e
000001c0: 0a74 83bd af08 d3bd ce38 05bd ecc8 a53e
000001d0: 5fc0 5b3c 4c95 8d3d 6fc7 e7bd 4592 e73d
000001e0: e508 963c 7a6b b3bc d42f 9fbd d59f 583d
000001f0: 7f8f c53d 9293 0fbd 9e1c bd3d 399f d5bd
00000200: ac9d 44be f060 713d 9b47 e1bd 1f7c 49be
00000210: 3b9b 7cbd c168 813d 0674 2bbd ccd8 3e3e
00000220: 1e96 163e e997 ad3e ab58 1f3e 410a 4a3e
00000230: b866 93bb f029 a73e c343 1a3e 7616 033e
00000240: d01e 9a3c 056e 173d 4da8 143e 281a b1bc
00000250: 1a3e df3d f553 373c 3fa8 a93e 4624 a63e
00000260: 79e9 893d 6b0e f23d 87f6 31bd 8753 c6bc
00000270: c10e 943d 09d2 a73e bec5 603e 6ae9 4f3e
00000280: e571 853d 82b6 5e3e e854 86bd 3d40 c8be
00000290: b231 0cbf d3a7 8ebe 64f1 94be 7c6e 3bbf
000002a0: 93a4 bf3d c5d7 21bf 54a0 01bf e6ef 07be
000002b0: bd0a 1dbf b4dd 07bf befa 153d d1eb bebe
000002c0: 53c2 c8be 66e2 233e ec84 d5be 243e 30bf
000002d0: 91a2 13be 31aa 07bf 2d64 e8be 83f7 09be
000002e0: 0914 9dbe fa04 85be 15c7 9a3d 44bc 6fbe
000002f0: 8d83 8abe ae67 b1bd fc68 51be 2bfc 87bc
00000300: b16b 4c3c 9eb2 93bd 19f8 983d 9a3f 8dbe
00000310: 99c0 a4be 64da 8bbd b077 c3bd d1e8 b63c
00000320: ab1e 76be 757f 57be 89e6 63bd c640 55bc
00000330: 1ce0 65bc 0215 0fbe 6566 3cbd a94d 62be
00000340: da4d ca3c ff25 b13c c26c 1c3d 16dc be3b
00000350: 9f33 10be 1c54 9bbe dc9f 56be 3f15 3bbe

bias f4 [8]
-0.0030413258 -0.063943915 0.023937307 -0.15969634 0.016534943 -0.0010248708 0.39751032 0.22132617
00000000: fb50 47bb 07f5 82bd 2c18 c43c 7087 23be
00000010: 4a74 873c f554 86ba 7986 cb3e 54a3 623e

weight f4 [8]
1.0041577 0.9950303 1.0042192 0.9865626 0.9728512 1.0087057 1.0417417 0.97072256
00000000: 3d88 803f 4eba 7e3f 418a 803f 5e8f 7c3f
00000010: c70c 793f 451d 813f cb57 853f 4681 783f

bias f4 [8]
-0.0056168963 -0.039570637 -0.007818301 0.12087191 -0.18598868 0.02400194 0.031323697 -0.06993105
00000000: f10d b8bb d214 22bd 5518 00bc b18b f73d
00000010: d173 3ebe b79f c43c 474d 003d 0338 8fbd

running_mean f4 [8]
7.813125e-06 0.0014913476 7.9196763 0.0011358137 1.2948704 0.0045308764 13.943151 4.565305
00000000: 1e15 0337 5279 c33a fd6d fd40 95df 943a
00000010: 50be a53f bf77 943b 2617 5f41 fb16 9240

running_var f4 [8]
0.042395152 0.0425963 3.2116334 0.042415433 0.09115264 0.042460162 10.113767 0.92872393
00000000: 8aa6 2d3d 7579 2e3d 678b 4d40 cebb 2d3d
00000010: 3cae ba3d b5ea 2d3d fdd1 2141 dac0 6d3f

weight f4 [20, 8, 3, 3]
-0.11674741 0.061524995 -0.047957923 -0.0039973697 0.032802157 -0.0479103 0.103098094 0.06300707
-0.03140862 -0.09783775 -0.060766194 -0.032220483 0.040743735 -0.101401135 -0.027876392 0.11083325
0.00060320453 -0.09760799 -0.029875822 0.030978557 0.031978257 -0.021987425 0.036011603 0.08113142
-0.020500656 0.19079596 -0.0006943454 0.03946762 0.044304878 -0.05870512 0.03676748 -0.12344384
0.08333999 0.07841104 0.06559695 0.027800005 0.1020191 0.13260259 0.14005098 0.16573755
0.14305604 -0.00093503186 0.003986824 0.0429668 0.07492403 0.015870085 -0.06582034 -0.11161842
0.056388006 0.13014206 0.08007748 -0.0031798712 0.03794649 0.05824936 0.16415797 0.060291998
0.022559227 0.100258864 0.07369647 0.19103374 0.15960658 0.0084986845 0.16728523 0.08432524
0.0725174 0.17676575 -0.02151204 0.033499487 -0.01067921 -0.032236975 0.19854239 0.06174697
-0.10924927 0.10470964 0.0034932836 -0.11696343 0.012799132 -0.061465077 -0.07251699 -0.021585206
-0.08404163 0.018542957 -0.010584121 -0.07446417 -0.052260317 0.07106616 0.07503129 -0.060421463
-0.020659853 0.014759729 -0.0852149 -0.029693328 0.0021993197 0.046564683 -0.04464519 -0.13170895
-0.03243359 -0.011526377 -0.0025421663 0.017940687 -0.095719084 -0.04925613 0.028220102 0.006055003
0.0075981095 0.064428024 -0.028433248 0.15300825 0.028521018 -0.0013733224 -0.13849494 0.055679824
0.08506889 -0.06338398 -0.035915498 -0.05386251 -0.021176552 -0.10588588 0.009876349 -0.098656125
-0.07454037 0.11050512 -0.041902192 0.044486202 -0.036952723 -0.114913076 -0.005972629 -0.046703126
-0.04858979 0.03147987 -0.075769246 -0.08555795 -0.07521574 -0.082480915 0.003971408 0.09890501
-0.11522346 0.043730106 -0.08023814 0.06863218 -0.054539837 0.010521722 0.03143794 -0.07824347
-0.016172655 -0.027507715 0.09165067 0.02979841 -0.098229 0.08514597 -0.07636721 -0.060246177
0.0351333 0.05870437 -0.101772286 -0.026975298 -0.051247094 -0.081235446 0.046383668 -0.048381623
0.043241635 0.055433672 -0.1488519 -0.0891066 -0.04312472 -0.044364333 0.07700804 0.042558245
-0.14322494 0.04729487 -0.030395895 -0.022990646 -0.0758607 0.001975138 0.083734624 0.06877195
0.103397354 0.010377543 0.047563486 -0.03662033 -0.12991802 -0.05504454 -0.1036054 0.01978964
-0.091446415 0.11305415 -0.13637437 -0.1253006 -0.04343813 -0.06625209 -0.08582323 0.05858301
-0.052338973 0.03333313 0.09789966 -0.068371244 -0.03270935 0.002954388 -0.049395535 -0.18488216
-0.1852789 -0.17686142 0.044571854 -0.053585548 -0.051602267 0.029062657 -0.02096167 -6.9674466e-06
-0.05117561 -0.068774536 -0.099436596 0.080493145 0.009358079 -0.09966716 -0.04219573 -0.030377973
0.08063335 0.023432018 -0.037581973 0.014913269 -0.079183966 -0.00029495487 -0.11091065 0.085736796
-0.08619965 -0.07079689 0.09020004 0.046928175 0.09699293 -0.022299547 0.11555313 0.024600865
-0.0064334963 -0.0714313 -0.098379105 -0.03296146 -0.015112732 -0.054602142 0.046024214 -0.019515691
0.14405215 -0.10401961 -0.10935562 0.049683753 -0.050019704 0.083606355 0.12315002 -0.045387667
0.104583405 0.08356874 -0.002180911 0.10659506 0.0521375 -0.10810998 0.015656231 0.021643478
00000000: 4419 efbd a201 7c3d 876f 44bd 5efc 82bb
00000010: 8e5b 063d 973d 44bd 1825 d33d da09 813d
00000020: 53a6 00bd 295f c8bd f9e5 78bd a0f9 03bd
00000030: e7e2 263d 66ab cfbd 085d e4bc 8bfc e23d
00000040: 5f20 1e3a b3e6 c7bd 24be f4bc bec6 fd3c
00000050: a2fb 023d f91e b4bc e780 133d 3b28 a63d
00000060: fef0 a7bc 0460 433e bb04 36ba cda8 213d
00000070: 0879 353d c874 70bd 7f99 163d 20d0 fcbd
00000080: 28ae aa3d f895 a03d b257 863d d6bc e33c
00000090: 64ef d03d f9c8 073e 8669 0f3e 1bb7 293e
000000a0: 487d 123e ed1c 75ba e7a3 823b f5fd 2f3d
000000b0: c571 993d fb01 823c d0cc 86bd 3398 e4bd
000000c0: 1cf7 663d f643 053e a9ff a33d 6365 50bb
000000d0: c76d 1b3d e296 6e3d 0719 283e bef4 763d
000000e0: 21ce b83c 8554 cd3d 2dee 963d 599e 433e
000000f0: e86f 233e 113e 0b3c d24c 2b3e b6b2 ac3d
00000100: 0184 943d 1502 353e 053a b0bc c236 093d
00000110: daf7 2ebc eb0a 04bd b24e 4b3e 64ea 7c3d
00000120: 15be dfbd 0272 d63d 93ef 643b 868a efbd
00000130: 73b3 513c cec2 7bbd ca83 94bd 75d3 b0bc
00000140: 051e acbd 66e7 973c 0569 2dbc ac80 98bd
00000150: ea0e 56bd 238b 913d 01aa 993d 7f7c 77bd
00000160: da3e a9bc cad2 713c 2685 aebd 6c3f f3bc
00000170: 7622 103b 9cba 3e3d e0dd 36bd b6de 06be
00000180: 16d9 04bd 21d9 3cbc 799a 26bb 59f8 923c
00000190: 5e08 c4bd ccc0 49bd d82d e73c 0c69 c63b
000001a0: 90f9 f83b d7f2 833d d8ec e8bc 32ae 1c3e
000001b0: e9a4 e93c 0e01 b4ba 9ed1 0dbe 8710 643d
000001c0: 9938 ae3d 76cf 81bd 211c 13bd ef9e 5cbd
000001d0: 737a adbc b2da d8bd 69d0 213c 390c cabd
000001e0: 9fa8 98bd 8250 e23d a2a1 2bbd 2a37 363d
000001f0: bd5b 17bd 8c57 ebbd 0bb6 c3bb c74b 3fbd
00000200: 1606 47bd 09f1 003d e82c 9bbd 0239 afbd
00000210: b60a 9abd c1eb a8bd 9622 823b b68e ca3d
00000220: 47fa ebbd 571e 333d e553 a4bd 078f 8c3d
00000230: 2a65 5fbd 4d63 2c3c 12c5 003d 1d3e a0bd
00000240: 847c 84bc dc57 e1bc 59b3 bb3d cc1b f43c
00000250: 492c c9bd 0361 ae3d 6966 9cbd b2c4 76bd
00000260: efe7 0f3d fe73 703d fd6d d0bd 4dfb dcbc
00000270: 79e8 51bd c55e a6bd cdfc 3d3d cf2b 46bd
00000280: 241e 313d 6b0e 633d a26c 18be 857d b6bd
00000290: 8ca3 30bd 60b7 35bd 64b6 9d3d 8e51 2e3d
000002a0: 8fa9 12be 44b8 413d d000 f9bc e156 bcbc
000002b0: db5c 9bbd 5171 013b 0f7d ab3d 4fd8 8c3d
000002c0: fec1 d33d 9206 2a3c eed1 423d 33ff 15bd
000002d0: 3b09 05be 6276 61bd 112f d4bd e21d a23c
000002e0: 4248 bbbd ef88 e73d b9a5 0bbe cd4e 00be
000002f0: 2eec 31bd 2daf 87bd 17c4 afbd bdf4 6f3d
00000300: 6461 56bd 5288 083d 9e7f c83d 3906 8cbd
00000310: 3dfa 05bd 689e 413b f952 4abd c051 3dbe
00000320: c1b9 3dbe 291b 35be fa90 363d 857c 5bbd
00000330: e65c 53bd cf14 ee3c cfb7 abbc e9c9 e9b6
00000340: 849d 51bd aad9 8cbd 6aa5 cbbd 97d9 a43d
00000350: a152 193c 4c1e ccbd 6ed5 2cbd 3adb f8bc
00000360: 1923 a53d 81f4 bf3c 8eef 19bd c956 743c
00000370: 342b a2bd 2ca4 9ab9 1f25 e3bd c696 af3d
00000380: 7189 b0bd f6fd 90bd ccba b83d c237 403d
00000390: 3ba4 c63d 8aad b6bc 1fa7 ec3d c187 c93c
000003a0: 14d0 d2bb 934a 92bd fc7a c9bd 9902 07bd
000003b0: 649b 77bc 7fa6 5fbd e383 3c3d 5fdf 9fbc
000003c0: 6882 133e 3c08 d5bd d7f5 dfbd 3181 4b3d
000003d0: 76e1 4cbd cf39 ab3d 1436 fc3d 6be8 39bd
000003e0: d32f d63d 1626 ab3d 9ded 0ebb 834e da3d
000003f0: 228e 553d c468 ddbd 7f41 803c aa4d b13c

bias f4 [20]
0.044782035 0.058392067 0.0010886685 0.027071394 -0.057757895 -0.10592447 -0.0393223 -0.11693237
-0.013563843 0.1159027 -0.08405998 -0.0076927287 -0.08203013 -0.028385004 0.06683426 -0.056734107
-0.10886787 -0.26342347 -0.10159179 -0.013779386
00000000: 5e6d 373d 852c 6f3d a7b1 8e3a d4c4 dd3c
00000010: 8b93 6cbd eeee d8bd 6c10 21bd 3d7a efbd
00000020: e23a 5ebc 655e ed3d a427 acbd 4913 fcbb
00000030: 6aff a7bd ab87 e8bc 67e0 883d 0662 68bd
00000040: 1ef6 debd 71df 86be 5b0f d0bd efc2 61bc

weight f4 [20]
1.0140202 1.0319151 0.9861127 0.9724083 1.0204102 0.99539316 1.000701 1.0122122
0.9975437 0.99189454 0.99539787 0.994502 0.96560127 0.9977305 0.9801609 1.0131999
1.0327202 0.9822534 0.9996433 0.9958379
00000000: 6acb 813f cb15 843f e271 7c3f c0ef 783f
00000010: cd9c 823f 16d2 7e3f f816 803f 2b90 813f
00000020: 065f 7f3f cdec 7d3f 65d2 7e3f af97 7e3f
00000030: a531 773f 446b 7f3f d3eb 7a3f 89b0 813f
00000040: 2d30 843f f574 7b3f a0e8 7f3f 3cef 7e3f

bias f4 [20]
-0.01211659 -0.015534991 -0.011094232 0.022417018 -0.011402685 -0.000529148 -0.023944799 -0.014130514
-0.02751464 -0.00384466 -0.018363265 -0.0042316667 0.0018744894 0.0041360585 0.008871027 -0.014008028
0.0051837144 0.014178415 -0.027855262 0.010118128
00000000: a984 46bc 7a86 7ebc 95c4 35bc e5a3 b73c
00000010: 54d2 3abc 85b6 0aba e227 c4bc ac83 67bc
00000020: 6266 e1bc b1f6 7bbb 8f6e 96bc cba9 8abb
00000030: 6db1 f53a c687 873b c957 113c ee81 65bc
00000040: 26dc a93b 954c 683c b830 e4bc 81c6 253c

running_mean f4 [20]
0.84191394 0.3139283 0.5599784 0.16456567 0.085683 0.23499447 0.26458314 0.18584038
0.6346154 0.437411 0.5791454 1.1213167 0.52321124 0.6310992 0.8732558 0.14606072
0.12726551 0.57372856 0.21168989 0.32806364
00000000: ac87 573f 36bb a03e bf5a 0f3f e783 283e
00000010: 927a af3d 64a2 703e 7177 873e f14c 3e3e
00000020: 2876 223f 56f4 df3e df42 143f 4e87 8f3f
00000030: 2cf1 053f b88f 213f b18d 5f3f f190 153e
00000040: e451 023e e0df 123f 3cc5 583e f5f7 a73e

running_var f4 [20]
0.35076198 0.46392342 1.4801428 0.18780152 0.09499337 0.33559477 0.38970858 0.08177739
0.22789277 0.11988945 1.5787246 5.6909595 1.3018309 1.8591151 0.36691472 0.082522586
0.13671552 1.6442244 0.079637446 0.0928432
00000000: 1397 b33e 5f87 ed3e 5275 bd3f 0b4f 403e
00000010: e28b c23d 14d3 ab3e e287 c73e e77a a73d
00000020: b95c 693e 9a88 f53d a613 ca3f 571c b640
00000030: 65a2 a63f 7cf7 ed3f 3fdc bb3e 9a01 a93d
00000040: 27ff 0b3e f275 d23f f518 a33d 9324 be3d

weight f4 [10, 20, 1, 1]
0.2097997 -0.014604541 0.101456 -0.12484561 0.11445835 0.04993992 -0.034023203 0.17305489
0.10539625 -0.16590813 0.11671345 0.03934446 -0.1222213 -0.11922031 -0.04138441 0.11156341
0.060674462 -0.08293942 0.25487545 -0.060167406 -0.29414514 -0.0014858164 0.23275113 0.15500888
-0.14541209 -0.17166704 -0.017491791 -0.20692566 -0.21227443 0.1024013 -0.12055674 -0.19904351
0.0003879503 -0.1582894 -0.11214769 -0.17888962 -0.045238152 0.0035280455 0.04150576 -0.16672741
-0.12676747 -0.099165484 0.039483212 0.084397264 0.23906468 -0.15058011 0.21834236 -0.16581854
0.1926806 0.11917453 -0.07337589 0.1210487 -0.0736603 0.25124997 0.011589824 -0.23056994
0.24518286 -0.092354484 0.051762514 -0.00834395 0.034265336 -0.015052705 0.021624526 0.12117419
0.19638112 0.08342519 0.20504275 0.03776314 0.1280845 0.0056225434 -0.1535764 -0.14464596
-0.10968325 0.0014455252 0.15593028 0.27327615 -0.21387406 -0.05177599 0.017337881 -0.19981852
0.15941513 -0.21530697 0.121489264 0.031658214 0.08070538 0.07785344 0.036871195 0.15191785
0.19451283 -0.084396504 0.13551183 0.22757517 0.0065829162 -0.0883672 -0.010258839 0.026953597
0.21197505 0.25074577 -0.21893911 0.037413333 0.03291867 -0.2521283 -0.17866126 0.09845352
-0.1976731 0.071911566 -0.2985332 0.02735383 -0.21788102 -0.17282529 -0.16346306 -0.055505615
-0.17259137 -0.02471011 0.097178906 -0.06430143 -0.20186366 0.15753132 -0.08027036 0.034210697
0.029684909 -0.067576624 0.15757865 -0.04384794 -0.20110205 -0.21240753 -0.20810485 -0.13031141
0.080326065 0.18614998 0.14227688 -0.21055773 0.023629582 0.15910959 0.20511667 -0.10678644
0.15419708 -0.065831095 0.22363658 0.08060667 0.17591016 -0.23494661 0.12566382 -0.14999741
-0.013016551 -0.17190678 -0.24135666 -0.0785588 -0.21287058 0.060777374 0.28489172 -0.07840338
0.09252117 -0.13489099 0.124611184 0.077014826 0.10070398 -0.108317666 0.13420857 0.06710647
-0.040451445 0.18066399 0.1665857 0.08764183 0.17959034 0.08221823 -0.22468136 -0.13480973
-0.06519575 -0.17565948 0.025785506 -0.15808901 0.09801988 0.20434527 -0.13909212 0.20811681
0.026865928 -0.07792106 -0.098131575 0.07253343 0.07562973 -0.2776967 0.0838375 -0.12592956
0.03301901 -0.13993035 0.04307826 0.15346332 -0.042535786 0.19246249 0.10288699 -0.009995479
-0.03141912 -0.073634796 -0.028846964 -0.12365934 -0.27267358 0.20765434 0.25862727 -0.04774414
00000000: bcd5 563e e247 6fbc 2ac8 cf3d 0eaf ffbd
00000010: 2469 ea3d cd8d 4c3d ea5b 0bbd 4d35 313e
00000020: fdd9 d73d d2e3 29be 7607 ef3d a827 213d
00000030: 294f fabd c729 f4bd b382 29bd 5b7b e43d
00000040: c985 783d 25dc a9bd 097f 823e 1972 76bd
00000050: 319a 96be babf c2ba 5056 6e3e a6ba 1e3e
00000060: e8e6 14be 7cc9 2fbe f24a 8fbc 52e4 53be
00000070: 785e 59be c6b7 d13d 74e6 f6bd 10d2 4bbe
00000080: cf65 cb39 9e16 22be b0ad e5bd d72e 37be
00000090: a44b 39bd c836 673b f201 2a3d 97ba 2abe
000000a0: 55cf 01be 4617 cbbd 26b9 213d 79d8 ac3d
000000b0: 5fcd 743e ac31 1abe 2495 5f3e 56cc 29be
000000c0: 104e 453e c711 f43d 1946 96bd 61e8 f73d
000000d0: 36db 96bd d6a3 803e 3fe3 3d3c 871a 6cbe
000000e0: 3711 7b3e 5924 bdbd ee04 543d 10b5 08bc
000000f0: cf59 0c3d 9f9f 76bc eb25 b13c 2c2a f83d
00000100: 2218 493e d3da aa3d baf6 513e 86ad 1a3d
00000110: 9528 033e 503d b83b 2243 1dbe 121e 14be
00000120: 9da1 e0bd c777 bd3a 30ac 1f3e daea 8b3e
00000130: cd01 5bbe 0f13 54bd 2c08 8e3c 3a9d 4cbe
00000140: b83d 233e 6e79 5cbe 5dcf f83d 0bac 013d
00000150: dd48 a53d a071 9f3d 4006 173d 5a90 1b3e
00000160: 5f2e 473e 13d8 acbd 9dc3 0a3e 7709 693e
00000170: 81b5 d73b ddf9 b4bd b014 28bc cacd dc3c
00000180: fd0f 593e c061 803e 9331 60be b93e 193d
00000190: bad5 063d f616 81be faf2 36be 00a2 c93d
000001a0: d16a 4abe 5f46 933d 58d9 98be 2415 e03c
000001b0: 341c 5fbe 1df9 30be dc62 27be db59 63bd
000001c0: cbbb 30be db6c cabc bc05 c73d 78b0 83bd
000001d0: 59b5 4ebe e44f 213e c964 a4bd 8420 0c3d
000001e0: c42d f33c 9d65 8abd 4c5c 213e e699 33bd
000001f0: b2ed 4dbe 5c81 59be 7019 55be 5b70 05be
00000200: fe81 a43d 1a9e 3e3e 08b1 113e 729c 57be
00000210: d392 c13c a0ed 223e 1b0a 523e d9b2 dabd
00000220: d7e5 1d3e 74d2 86bd fd00 653e 1c15 a53d
00000230: cb21 343e d895 70be 04ae 003e ec98 19be
00000240: 5f43 55bc 5508 30be 3326 77be 70e3 a0bd
00000250: bffa 59be b2f1 783d 54dd 913e f491 a0bd
00000260: bd7b bd3d dd20 0abe 2634 ff3d f3b9 9d3d
00000270: e33d ce3d a7d5 ddbd f96d 093e 1e6f 893d
00000280: 6ab0 25bd fbff 383e 7195 2a3e 8f7d b33d
00000290: 88e6 373e 0862 a83d df12 66be 900b 0abe
000002a0: 5985 85bd 14e0 33be 203c d33c 16e2 21be
000002b0: a6be c83d e33f 513e 2a6e 0ebe 931c 553e
000002c0: ef15 dc3c 1495 9fbd 35f9 c8bd 688c 943d
000002d0: c3e3 9a3d 432e 8ebe ffb2 ab3d aef3 00be
000002e0: f13e 073d e749 0fbe d472 303d 7d25 1d3e
000002f0: 013a 2ebd e314 453e 6ab6 d23d 14c4 23bc
00000300: 56b1 00bd d7cd 96bd 7850 ecbc 1c41 fdbd
00000310: df9b 8bbe 57a3 543e cb6a 843e 5c8f 43bd

bias f4 [10]
-0.24117827 0.10736193 -0.025456084 0.12967916 0.22559056 0.1648497 -0.05621666 0.05930765
0.1694549 -0.0716172
00000000: 70f7 76be 92e0 db3d 4789 d0bc 9dca 043e
00000010: 3601 673e 5cce 283e 7143 66bd 94ec 723d
00000020: 9685 2d3e 0aac 92bd

weight f4 [10]
1.0337389 1.0355942 0.9558754 0.98595625 0.98719823 1.0105313 1.0071771 0.9739316
0.9971519 1.0111873
00000000: 8e51 843f 5a8e 843f 40b4 743f a167 7c3f
00000010: 06b9 7c3f 1759 813f 2eeb 803f 9553 793f
00000020: 5945 7f3f 966e 813f

bias f4 [10]
0.002456041 0.011994491 0.0018989092 -0.007533257 -0.0065536825 -0.005590078 -0.010479314 0.008217279
-0.0065363287 0.0021638991
00000000: 88f5 203b 8b84 443c d2e4 f83a 8ad9 f6bb
00000010: 46c0 d6bb f92c b7bb 6eb1 2bbc c4a1 063c
00000020: b32e d6bb 34d0 0d3b

running_mean f4 [10]
0.16875397 0.16629349 0.11816311 0.39217317 0.33961096 0.4186425 0.28824702 0.3371478
0.4691622 0.2381552
00000000: d7cd 2c3e d748 2a3e 80ff f13d ecca c83e
00000010: 7de1 ad3e 4f58 d63e 1d95 933e a39e ac3e
00000020: 0736 f03e f5de 733e

running_var f4 [10]
0.28041977 0.17501411 0.17548859 0.28587794 0.5686464 0.11693928 0.12239139 0.12593399
0.8514355 0.15081067
00000000: 2e93 8f3e e636 333e 48b3 333e 985e 923e
00000010: cf92 113f dc7d ef3d 56a8 fa3d d7f4 003e
00000020: adf7 593f 1d6e 1a3e

weight f4 [20, 10, 3, 3]
-0.11875122 -0.0625626 -0.111422405 -0.07024396 -0.0056101526 -0.13277629 0.12923394 -0.002520643
-0.053620815 0.033222195 -0.03891507 0.06570749 -0.05413753 -0.13374947 0.039670862 0.11057757
0.017666114 -0.0754098 -0.05154916 -0.005619294 0.051746972 -0.0977148 0.00015869907 -0.026890697
-0.06683337 0.0201384 -0.06368818 0.0064457064 0.097403996 -0.10493688 0.012386048 -0.08674389
-0.10272138 -0.0022101263 -0.07525168 0.014649488 -0.07541717 0.056355853 -0.097417496 0.025195023
0.010126803 -0.022727462 0.018603334 0.034586262 -0.041230705 0.020871038 0.043061744 0.06817456
-0.008229217 -0.025501749 -0.05385824 0.023498239 0.14809789 0.040185537 -0.07705107 -0.030778226
-0.037075397 -0.098243125 0.054311685 0.021402204 0.008571435 0.04890928 -0.022653585 -0.032396864
-0.058131043 0.070575565 0.07306842 0.056168873 -0.045300934 0.014338524 -0.029354295 -0.065317884
-0.0874413 0.0023803783 -0.06514482 0.040217303 0.014149716 -0.016099228 -0.113012195 -0.114948906
-0.12747933 0.08818793 -0.09435077 -0.04293091 -0.09156015 0.047225635 -0.023718808 0.006998646
0.15045899 0.08179235 -0.0805212 -0.061487596 -0.04714287 0.13567857 0.10316567 -0.042612642
0.0024607584 -0.003299081 -0.071402885 -0.04233783 0.030146228 -0.113278426 -0.08028861 -0.06650165
0.095408894 0.003592157 0.023893656 0.09277921 0.08426533 -0.107979596 0.063000865 0.05630248
-0.08886682 0.027342677 -0.024386501 0.007923741 0.043254662 0.026748862 0.043939542 0.029206928
0.04320434 0.00870725 -0.0057566203 0.026854279 0.055691343 0.024922123 0.08849866 0.042338695
-0.08037489 0.09615727 0.09697308 0.04257666 -0.06930201 0.06117347 -0.07245855 0.007177914
0.0987655 0.11113296 -0.07277043 -0.1213026 -0.07264618 -0.030216768 -0.035789832 -0.05987589
-0.032696135 0.07270365 -0.045093507 0.013081987 -0.062932685 -0.11732249 -0.10251842 -0.12388363
0.00038882997 0.018883606 -0.05291397 -0.059392624 0.013994907 0.116429426 -0.07768675 -0.05736722
-0.059992827 0.03484173 -0.046615236 0.08534852 -0.08256847 0.008096846 -0.011928782 0.0009525129
-0.030454354 0.11376935 -0.09690298 -0.013180136 -0.026497867 -0.013502919 0.120841876 -0.008326409
-0.04922952 -0.10482243 -0.08573509 -0.0129224835 0.05510384 -0.06441945 0.0005895076 -0.07127938
0.009104418 0.0979919 0.013785216 0.082746245 0.05985895 0.035821192 0.13773853 -0.06302682
-0.029935356 -0.010063806 0.0030447363 -0.0979196 0.021380149 -0.076005846 0.091781534 0.09800632
0.019369192 -0.008804433 0.019717932 -0.102176145 -0.033552613 0.040410127 -0.05452814 -0.031053606
0.0528882 -0.012854261 -0.13149357 -0.060590014 -0.081139565 0.09950496 0.07513513 0.0052807527
0.10512183 0.09589659 -0.08830231 -0.109003626 0.007813559 -0.0074993093 0.081042044 0.058297314
0.022382693 0.0050820094 -0.07073634 -0.015232472 0.002456479 0.07799333 -0.0025728843 -0.050130278
0.019525025 -0.04821295 -0.033007987 0.038174998 0.074117094 -0.09038865 -0.07664488 -0.059990652
-0.012492889 -0.072057106 -0.011398217 0.0034440248 0.12832022 -0.023561027 -0.06840771 -0.06152408
-0.055732235 -0.004511097 -0.02898601 -0.08025878 -0.054388195 -0.060010258 0.0039789695 -0.090146974
00000000: d733 f3bd d220 80bd 6e31 e4bd 11dc 8fbd
00000010: 5fd5 b7bb 82f6 07be e755 043e 5f31 25bb
00000020: 80a1 5bbd ff13 083d 6965 1fbd a691 863d
00000030: 51bf 5dbd 9ff5 08be ea7d 223d 7e76 e23d
00000040: 87b8 903c 7470 9abd 3625 53bd 0e22 b8bb
00000050: a2f4 533d b21e c8bd 7568 2639 e149 dcbc
00000060: efdf 88bd 49f9 a43c f36e 82bd 8136 d33b
00000070: bf7b c73d 26e9 d6bd daee 4a3c c8a6 b1bd
00000080: 965f d2bd c4d7 10bb 8e1d 9abd 6804 703c
00000090: 5174 9abd 65d5 663d d382 c7bd cb65 ce3c
000000a0: e4ea 253c f12e babc 0566 983c 53aa 0d3d
000000b0: 87e1 28bd bdf9 aa3c 8361 303d 1b9f 8b3d
000000c0: d6d3 06bc 0be9 d0bc 759a 5cbd 617f c03c
000000d0: f9a6 173e 9799 243d f4cc 9dbd 9e22 fcbc
000000e0: 5fdc 17bd b133 c9bd ee75 5e3d ad53 af3c
000000f0: 346f 0c3c 1955 483d 0394 b9bc 93b2 04bd
00000100: d11a 6ebd ec89 903d e5a4 953d 5511 663d
00000110: 798d 39bd 21ec 6a3c 6b78 f0bc 62c5 85bd
00000120: 6d14 b3bd 1f00 1c3b a66a 85bd e6ba 243d
00000130: 36d4 673c 87e2 83bc f072 e7bd 556a ebbd
00000140: f189 02be e09b b43d fa3a c1bd 52d8 2fbd
00000150: e383 bbbd ab6f 413d f24d c2bc e654 e53b
00000160: ec11 1a3e bf82 a73d 4de8 a4bd 6bda 7bbd
00000170: e218 41bd 53ef 0a3e 8648 d33d 988a 2ebd
00000180: ad44 213b 6535 58bb ad3b 92bd 6f6a 2dbd
00000190: 39f5 f63c 85fe e7bd 5b6e a4bd 0432 88bd
000001a0: bd65 c33d 656a 6b3b a1bc c33c 0703 be3d
000001b0: 4d93 ac3d 6824 ddbd 9906 813d 6e9d 663d
000001c0: cfff b5bd c0fd df3c 33c6 c7bc 94d2 013c
000001d0: cd2b 313d 6e20 db3c f3f9 333d 5e43 ef3c
000001e0: 09f7 303d daa8 0e3c 08a2 bcbb 81fd db3c
000001f0: 9b1c 643d 7b29 cc3c c93e b53d 576b 2d3d
00000200: 979b a4bd 1aee c43d d299 c63d dd64 2e3d
00000210: 36ee 8dbd 0891 7a3d 2665 94bd b534 eb3b
00000220: 9145 ca3d ad99 e33d aa08 95bd 7f6d f8bd
00000230: 85c7 94bd 2889 f7bc 5c98 12bd 6c40 75bd
00000240: 62ec 05bd a7e5 943d f8b3 38bd d555 563c
00000250: dae2 80bd c646 f0bd 2df5 d1bd b3b6 fdbd
00000260: e0db cb39 cbb1 9a3c 52bc 58bd ae45 73bd
00000270: e54a 653c 8d72 ee3d 3b1a 9fbd e4f9 6abd
00000280: 0abb 75bd 34b6 0e3d 9eef 3ebd 34cb ae3d
00000290: a819 a9bd a2a8 043c f070 43bc 0fb2 793a
000002a0: 697b f9bc e8ff e83d 1275 c6bd 7ff1 57bc
000002b0: 0e12 d9bc 593b 5dbc f27b f73d 7e6b 08bc
000002c0: e5a4 49bd 24ad d6bd e195 afbd d3b8 53bc
000002d0: 90b4 613d 58ee 83bd 2f89 1a3a ecfa 91bd
000002e0: b22a 153c faaf c83d 63db 613c dd76 a93d
000002f0: a92e 753d 3eb9 123d 540b 0d3e 3514 81bd
00000300: fe3a f5bc a9e2 24bc 338a 473b 128a c8bd
00000310: 6c25 af3c f4a8 9bbd f5f7 bb3d 8ab7 c83d
00000320: 24ac 9e3c 7840 10bc 8087 a13c ba41 d1bd
00000330: 776e 09bd 1785 253d e658 5fbd 2264 febc
00000340: 4ca1 583d ae9a 52bc 40a6 06be 3c2d 78bd
00000350: 802c a6bd 42c9 cb3d 72e0 993d 2a0a ad3b
00000360: 1d4a d73d 6e65 c43d d7d7 b4bd 4b3d dfbd
00000370: 7104 003c c4bc f5bb 5ff9 a53d 2ac9 6e3d
00000380: e95b b73c fc86 a63b 37de 90bd 9e91 79bc
00000390: e1fc 203b f8ba 9f3d d69d 28bb 6855 4dbd
000003a0: f2f2 9f3c f17a 45bd 6233 07bd 635d 1c3d
000003b0: b4ca 973d af1d b9bd fef7 9cbd c2b8 75bd
000003c0: f9ae 4cbc ad92 93bd 96bf 3abc 26b5 613b
000003d0: 6066 033e 0e03 c1bc 5719 8cbd ac00 7cbd
000003e0: 7c47 64bd d3d1 93bb 1274 edbc b75e a4bd
000003f0: 28c6 5ebd 51cd 75bd 0462 823b fa9e b8bd

bias f4 [20]
-0.01677411 0.07468333 -0.07261942 -0.048269536 0.089807995 -0.018459044 -0.03326317 -0.063202314
0.023292057 0.042136915 -0.018671561 -0.08701655 0.071023986 0.0471841 0.022779364 -0.10840916
-0.07095693 -0.079659306 -0.10775753 -0.11889166
00000000: dc69 89bc 93f3 983d 7eb9 94bd 47b6 45bd
00000010: 41ed b73d 6c37 97bc f63e 08bd 3770 81bd
00000020: fcce be3c c297 2c3d 1af5 98bc bc35 b2bd
00000030: 0675 913d 1d44 413d ca9b ba3c 9f05 debd
00000040: de51 91bd 6b24 a3bd fbaf dcbd 787d f3bd

weight f4 [20]
0.99021715 0.9848369 0.9910875 1.0051996 1.0286419 0.99639916 1.0006258 0.9994908
0.9969389 0.9874447 1.0020504 1.022689 1.0224926 0.98396146 0.98959106 0.9931559
0.98869103 1.0127459 1.0151958 1.0005741
00000000: df7e 7d3f 451e 7c3f e9b7 7d3f 61aa 803f
00000010: 8aaa 833f 0414 7f3f 8214 803f a1de 7f3f
00000020: 6337 7f3f 2dc9 7c3f 3043 803f 79e7 823f
00000030: 0ae1 823f e6e4 7b3f d755 7d3f 773f 7e3f
00000040: db1a 7d3f a8a1 813f f0f1 813f d012 803f

bias f4 [20]
-0.0026268256 -0.0010060626 0.0074326796 -0.011735798 0.006829462 0.0073663704 -0.0037515052 0.0016401471
-0.0016430472 0.014928583 0.018670388 0.010050553 0.0017730492 -0.0032042314 0.0007270666 0.002950474
0.007157886 -0.007919206 -0.0055141337 0.004262064
00000000: d226 2cbb dcdd 83ba d68d f33b 8147 40bc
00000010: aec9 df3b 9861 f13b d0db 75bb 34fa d63a
00000020: 845b d7ba 0497 743c a4f2 983c 13ab 243c
00000030: a965 e83a 15fe 51bb 9d98 3e3a bd5c 413b
00000040: b38c ea3b 8fbf 01bc e8af b4bb c9a8 8b3b

running_mean f4 [20]
0.17343545 0.30346355 0.17912455 0.2729302 0.3923767 0.1848512 0.31958503 0.23400149
0.41166747 0.4163924 0.2657554 0.47252017 0.50035805 0.3352491 0.33306646 0.2945841
0.28395513 0.1957983 0.16790527 0.20546104
00000000: 1099 313e 935f 9b3e 6d6c 373e 82bd 8b3e
00000010: 99e5 c83e a249 3d3e a6a0 a33e 169e 6f3e
00000020: 14c6 d23e 6231 d53e 1711 883e 2aee f13e
00000030: 7717 003f c5a5 ab3e b087 aa3e bad3 963e
00000040: 9162 913e 597f 483e 5cef 2b3e 6164 523e

running_var f4 [20]
0.14500433 0.42470193 0.32828382 0.264135 0.23192573 0.21908255 0.45062712 0.1224681
0.7885704 0.7312001 0.21596707 0.78840905 0.78296375 0.58811593 0.34989974 0.4838787
0.3856637 0.21376383 0.29679152 0.33974555
00000000: 047c 143e 8872 d93e d114 a83e b43c 873e
00000010: f07d 6d3e 2d57 603e 99b8 e63e 8ed0 fa3d
00000020: c0df 493f ee2f 3b3f 7926 5d3e 2dd5 493f
00000030: 5070 483f c48e 163f 0f26 b33e f3be f73e
00000040: b675 c53e e8e4 5a3e 0ff5 973e 21f3 ad3e

weight f4 [32, 20, 1, 1]
-0.17786025 -0.22197413 -0.044247333 0.20736423 -0.19407634 -0.15880504 0.18657969 -0.010538816
0.18783185 -0.2150726 -0.18743744 -0.07865356 0.07528234 -0.20310536 0.08307637 0.18090475
0.16075133 -0.20388204 0.19541802 -0.0636257 0.11999794 0.08829457 -0.18066733 -0.090740114
0.04859006 0.17725515 0.124881364 -0.0631004 -0.14059646 -0.13816653 -0.15217875 -0.11592607
-0.04120437 -0.15884507 0.18560366 -0.066075966 0.027386094 0.08011228 -0.008624307 -0.14684403
0.16868635 0.06470172 -0.17064035 -0.13515744 0.19622545 -0.1939656 0.06734375 0.202002
-0.009065454 0.19791493 0.045686252 -0.08664367 -0.08705013 -0.15855685 -0.20973209 -0.011125741
0.095057674 -0.107904114 -0.17974713 0.04036654 0.1138809 0.06586385 0.19044791 0.10535261
-0.13299575 -0.12315886 -0.15485497 -0.06594818 0.083553985 -0.19653744 -0.1979791 -0.12102644
-0.15927865 0.046619825 -0.15968943 0.061070822 0.07960009 0.16085298 -0.1739182 0.12779415
0.06560387 -0.081137806 -0.064694084 0.19537824 0.01321526 0.032081746 0.14413026 -0.17644034
0.103721775 -0.15382038 -0.18841743 0.22687244 -0.009017054 0.027151857 0.006564639 -0.14743803
-0.043238692 0.19650795 0.08407424 -0.16339503 0.13991545 -0.12582017 -0.15213071 -0.13468714
-0.057350572 -0.004881574 -0.06059736 -0.21639372 0.17901598 -0.112868406 -0.12756342 0.20101166
0.07304612 -0.084543996 -0.048237957 -0.059120063 0.16184616 0.1724778 0.21827441 0.22213572
0.2062366 0.09828264 -0.061723474 0.07526305 -0.12625057 -0.11924354 -0.2134946 -0.20720297
-0.1133189 -0.13668953 -0.05746819 0.1264648 -0.16276869 0.23007162 0.18813536 -0.076563336
0.21727772 -0.04077192 -0.16365552 -0.12292592 -0.08863435 0.08403883 0.12042179 0.096262105
-0.18052739 0.15380768 0.025827073 0.20401667 -0.18871236 -0.15684171 0.1394114 -0.02276173
0.03587267 0.07838382 0.093832105 0.033893216 0.13056089 0.091596715 0.12577799 -0.022578018
0.174598 0.12353952 0.014676045 0.06568055 -0.15762575 -0.048854396 0.19111438 0.2320352
0.14738767 0.18914732 -0.08887593 -0.19323517 0.08440308 0.048508484 0.14344595 -0.14979653
0.0035049142 -0.03934223 -0.2058665 -0.03420972 -0.20885168 0.14064737 0.15212806 -0.17166063
0.20641664 0.11887783 -0.14985964 0.15125428 0.114735834 -0.16621047 0.11939624 0.16017547
0.030274903 0.026066957 0.16333881 -0.045051597 0.13520555 0.08057287 -0.109564275 0.034015898
-0.21254277 0.11293688 0.19099839 0.024715785 0.24618885 0.053557646 -0.13436031 0.07597632
-0.11975732 -0.17713371 0.19705385 -0.03612683 0.16445224 0.19580026 0.18235588 -0.22526447
0.20108914 -0.011654408 -0.0960167 -0.08745924 0.20466034 -0.052655056 -0.04265557 0.111395076
0.17146198 0.052805066 -0.18781312 -0.08047515 0.022993369 0.18957244 0.09339984 0.0051767584
0.061858267 0.0770532 -0.15783934 0.18003684 0.18862307 0.16817208 0.018133452 -0.108783916
-0.14336377 -0.18060899 -0.14706518 0.17152394 -0.14917153 0.202832 0.008840316 0.020676706
0.13103081 0.09006844 0.13623174 -0.003642657 0.1844245 0.17808238 0.044404104 0.036861595
00000000: ff20 36be 304d 63be b13c 35bd 4a57 543e
00000010: f3bb 46be ca9d 22be bf0e 3f3e 00ab 2cbc
00000020: fe56 403e fe3b 5cbe 9aef 3fbe 1e15 a1bd
00000030: a12d 9a3d dafa 4fbe f223 aa3d 183f 393e
00000040: ff9b 243e 74c6 50be a91b 483e 314e 82bd
00000050: 7bc1 f53d c9d3 b43d db00 39be f4d5 b9bd
00000060: 5f06 473d 6082 353e cdc1 ff3d c83a 81bd
00000070: 85f8 0fbe 877b 0dbe bfd4 1bbe a66a edbd
00000080: eac5 28bd 48a8 22be e30e 3e3e d652 87bd
00000090: cd58 e03c e811 a43d f74c 0dbc 485e 16be
000000a0: 1dbc 2c3e 5682 843d 58bc 2ebe b666 0abe
000000b0: 53ef 483e eb9e 46be 85eb 893d 9dd9 4e3e
000000c0: 4587 14bc 36aa 4a3e 8221 3b3d 3d72 b1bd
000000d0: 5747 b2bd ba5c 22be 02c4 56be bd48 36bc
000000e0: 99ad c23d d5fc dcbd a20f 38be 6357 253d
000000f0: 643a e93d a0e3 863d c704 433e 1cc3 d73d
00000100: 0a30 08be b63a fcbd 4d92 1ebe d70f 87bd
00000110: 5a1e ab3d 1c41 49be 08bb 4abe b6dc f7bd
00000120: f119 23be 6ef4 3e3d a085 23be 6625 7a3d
00000130: 5f05 a33d a5b6 243e 9d17 32be 78dc 023e
00000140: 525b 863d 942b a6bd 557e 84bd 3c11 483e
00000150: d184 583c 2668 033d e296 133e c7ac 34be
00000160: 156c d43d 1783 1dbe 80f0 40be 4051 683e
00000170: 44bc 13bc 926d de3c 2f1c d73b fff9 16be
00000180: 0e1b 31bd 6139 493e 1d2f ac3d 0751 27be
00000190: ff45 0f3e 01d7 00be 27c8 1bbe 6deb 09be
000001a0: 6fe8 6abd 9cf5 9fbb f034 78bd 5196 5dbe
000001b0: f74f 373e 8d27 e7bd fc9f 02be 00d6 4d3e
000001c0: 3499 953d 6725 adbd 2a95 45bd e127 72bd
000001d0: 00bb 253e 059e 303e 5483 5f3e 8c77 633e
000001e0: b02f 533e 6948 c93d c1d1 7cbd 8423 9a3d
000001f0: d447 01be f535 f4bd 549e 5abe 042d 54be
00000200: bd13 e8bd 57f8 0bbe c463 6bbd fd7f 013e
00000210: d6ac 26be e597 6b3e 8ea6 403e 3dcd 9cbd
00000220: 0d7e 5e3e 7500 27bd 5095 27be 96c0 fbbd
00000230: ed85 b5bd 8d1c ac3d b39f f63d 1125 c53d
00000240: 2cdc 38be c37f 1d3e 4c93 d33c bfe9 503e
00000250: d03d 41be 1d9b 20be ddc1 0e3e cf76 babc
00000260: 39ef 123d b287 a03d 0c2b c03d 9dd3 0a3d
00000270: c1b1 053e 0f97 bb3d f2cb 003e 89f5 b8bc
00000280: d1c9 323e 4a02 fd3d cb73 703c 8683 863d
00000290: a568 21be 8c1b 48bd 7db3 433e a39a 6d3e
000002a0: cbec 163e d6af 413e 9504 b6bd 71df 45be
000002b0: 86db ac3d d5b0 463d 7fe3 123e 4364 19be
000002c0: b4b2 653b 5125 21bd abce 52be 7e1f 0cbd
000002d0: 37dd 55be dd05 103e 75c7 1b3e cec7 2fbe
000002e0: e25e 533e 3876 f33d ce74 19be 67e2 1a3e
000002f0: 9ffa ea3d 1433 2abe 0486 f43d 0a05 243e
00000300: 1303 f83c 5f8a d53c 4a42 273e 0688 38bd
00000310: 5373 0a3e 6403 a53d 3c63 e0bd 4154 0b3d
00000320: d0a4 59be 734b e73d 1595 433e c278 ca3c
00000330: ee18 7c3e 435f 5b3d c095 09be 7999 9b3d
00000340: 5343 f5bd 8a62 35be 7cc8 493e baf9 13bd
00000350: 2b66 283e dd7f 483e 80bb 3a3e bbab 66be
00000360: 50ea 4d3e 21f2 3ebc 67a4 c4bd d41d b3bd
00000370: 7b92 513e d4ac 57bd 9bb7 2ebd 1a23 e43d
00000380: bb93 2f3e 204a 583d 1552 40be 28d0 a4bd
00000390: 975c bc3c 471f 423e 6a48 bf3d cca1 a93b
000003a0: 185f 7d3d 11ce 9d3d a3a0 21be 945b 383e
000003b0: 6826 413e 4d35 2c3e 9b8c 943c 1aca debd
000003c0: f4cd 12be 90f1 38be 4198 16be f9a3 2f3e
000003d0: 6cc0 18be 31b3 4f3e f9d6 103c 3262 a93c
000003e0: f12c 063e cd75 b83d 5580 0b3e a5b9 6ebb
000003f0: c7d9 3c3e 3a5b 363e 14e1 353d 2ffc 163d

bias f4 [32]
-0.051549304 -0.061291415 -0.079035245 -0.06770767 -0.06421716 -0.12618925 -0.17654946 -0.19476068
-0.20679943 -0.06606405 -0.13466774 0.075058825 -0.17240584 0.1931855 0.1317692 0.058575783
0.12334772 -0.10451571 -0.1952645 0.06257684 -0.20022075 0.15187182 0.04276794 0.021839004
-0.036994517 -0.0668166 0.1586242 -0.034221433 0.1227425 0.1671944 -0.11715515 -0.20733312
00000000: 5d25 53bd b50c 7bbd 3bdd a1bd 52aa 8abd
00000010: 4984 83bd c137 01be 62c9 34be 586f 47be
00000020: 3bc3 53be 974c 87bd 57e6 09be 71b8 993d
00000030: 288b 30be 6bd2 453e 81ee 063e 29ed 6f3d
00000040: bb9d fc3d 550c d6bd 6bf3 47be 4928 803d
00000050: ab06 4dbe 4984 1b3e 6f2d 2f3d b6e7 b23c
00000060: 9087 17bd 24d7 88bd 626e 223e c62b 0cbd
00000070: 6b60 fb3d 0235 2b3e 0aef efbd 224f 54be

weight f4 [32]
1.000706 0.9977191 0.99477375 0.99071044 0.9906178 0.99167234 0.99656034 1.0070952
1.0063008 0.98804396 0.9987044 1.0002668 0.9997481 0.9943764 1.002131 1.0159025
1.0189283 0.99981743 1.0209242 1.0065024 0.995603 1.0123118 0.9932328 0.99698323
0.99336755 0.9926884 1.0042866 1.0086362 0.99682003 0.99909765 0.9941085 0.99189883
00000000: 2217 803f 856a 7f3f 7ea9 7e3f 339f 7d3f
00000010: 2199 7d3f 3dde 7d3f 941e 7f3f 7fe8 803f
00000020: 77ce 803f 73f0 7c3f 17ab 7f3f be08 803f
00000030: 7eef 7f3f 748f 7e3f d445 803f 1809 823f
00000040: 3e6c 823f 09f4 7f3f a5ad 823f 12d5 803f
00000050: d7df 7e3f 6f93 813f 8144 7e3f 4b3a 7f3f
00000060: 564d 7e3f d420 7e3f 778c 803f fe1a 813f
00000070: 992f 7f3f ddc4 7f3f e57d 7e3f 15ed 7d3f

bias f4 [32]
0.0010920701 0.00884764 -0.003895349 0.003694626 0.00024173365 0.0016503102 0.00036738082 0.006203011
-0.003081104 0.0026030561 -0.010065857 -0.0028110493 0.00547431 0.001990293 0.009478174 -0.005942658
0.0053540063 -0.013776606 -0.014972468 0.008289011 -0.006285233 0.0017860258 0.0031714856 0.010785133
-0.0003969953 -0.0011125009 0.0024742356 0.004738523 -0.0012004469 0.0060909074 -0.00073554285 -0.008151692
00000000: cb23 8f3a b1f5 103c 1d49 7fbb 8a21 723b
00000010: e279 7d39 394f d83a 059d c039 a142 cb3b
00000020: 59ec 49bb 0998 2a3b 44eb 24bc 9539 38bb
00000030: d761 b33b 936f 023b 584a 1b3c a1ba c2bb
00000040: a970 af3b 46b7 61bc 154f 75bc a2ce 073c
00000050: 5bf4 cdbb 1519 ea3a b3d8 4f3b 20b4 303c
00000060: cf23 d0b9 56d1 91ba c926 223b 9d45 9b3b
00000070: 5058 9dba 3c96 c73b 72d1 40ba ad8e 05bc

running_mean f4 [32]
0.19957882 0.13996847 0.22635823 0.17375761 0.13008054 0.20141973 0.08615197 0.10238652
0.09179893 0.15011686 0.15019211 0.15464848 0.14616314 0.27323395 0.20363186 0.3393785
0.29169512 0.11550134 0.099630415 0.21589713 0.09759558 0.24692336 0.28639877 0.1415068
0.14735942 0.16961235 0.22966488 0.12072471 0.19373614 0.25961572 0.2965093 0.14402092
00000000: 645e 4c3e e553 0f3e 74ca 673e 84ed 313e
00000010: d533 053e f940 4e3e 7270 b03d 06b0 d13d
00000020: 1401 bc3d 3cb8 193e f6cb 193e 2c5c 1e3e
00000030: caab 153e 52e5 8b3e df84 503e 05c3 ad3e
00000040: 1059 953e f78b ec3d 080b cc3d 2314 5d3e
00000050: 31e0 c73d 7ad9 7c3e dca2 923e 29e7 103e
00000060: 63e5 163e dcae 2d3e 452d 6b3e 843e f73d
00000070: c462 463e 5aec 843e 11d0 973e 387a 133e

running_var f4 [32]
0.25778162 0.09076379 0.11902599 0.1750304 0.18035603 0.19935013 0.10493684 0.19243982
0.11981427 0.17935199 0.18363278 0.14552566 0.1845645 0.18271792 0.13930124 0.15214685
0.1842349 0.15755127 0.09207432 0.14427207 0.11519491 0.22023936 0.31238297 0.12830077
0.14372213 0.14346994 0.1620632 0.104342535 0.11288822 0.12572376 0.31183085 0.09576801
00000000: f4fb 833e 5ee2 b93d e6c3 f33d 2b3b 333e
00000010: 40af 383e 7122 4c3e 20e9 d63d f20e 453e
00000020: 2f61 f53d 0ca8 373e 3b0a 3c3e ae04 153e
00000030: 7afe 3c3e 681a 3b3e fca4 0e3e 62cc 1b3e
00000040: 13a8 3c3e 1f55 213e 7691 bc3d 0fbc 133e
00000050: 4feb eb3d 6d86 613e a9f0 9f3e 4761 033e
00000060: e52b 133e c9e9 123e e5f3 253e 8ab1 d53d
00000070: f031 e73d bbbd 003e 4ba8 9f3e 0522 c43d

weight f4 [10, 32, 3, 3]
0.005372344 0.061299343 0.04687519 0.037736643 0.047475856 0.0401235 -0.06820849 0.036886718
-0.07973261 0.03794477 -0.036903244 0.088881664 -0.03290419 0.038408473 -0.036199555 0.008005746
0.02710009 -0.015517264 -0.018549915 0.018666826 0.025789779 -0.00017560633 -0.06395949 0.002831965
-0.044068567 0.021325337 0.011617756 0.03962618 0.0331345 -0.030106187 -0.045214396 -0.044015564
-0.0056907116 0.02644253 0.0394463 -0.06143441 -0.026032403 -0.013142066 -0.043422397 0.022763774
0.02050137 0.0143337315 0.026169494 0.047724675 -0.026611833 0.0038151448 -0.017411513 0.008191622
0.0063148155 -0.0035984933 -0.020415433 -0.054767266 -0.0055937567 -0.006377615 -0.03332379 -0.00420268
0.0033188316 0.021056501 0.030230101 0.05047726 -0.0052588456 -0.039677218 0.009821457 0.030227192
-0.078506276 -0.05467569 0.031120561 -0.048367158 0.028938454 -0.016164333 0.018231964 -0.03245073
-0.06582747 0.035440024 -0.03554759 -0.012240469 -0.011879964 -0.06968404 -0.04400263 0.05294611
-0.05812183 -0.0089885015 -0.041468766 -0.046116304 -0.031270735 0.04775175 -0.0013231754 -0.05693564
-0.024399733 0.03181731 -0.05178659 0.02254101 0.045211352 -0.03293461 -0.035488572 0.030114315
0.015961898 0.02375598 0.050333887 -0.026274646 0.03199891 -0.020700099 -0.08136137 0.02547657
-0.006725998 -0.019500146 -0.029919527 -0.02578397 0.044999786 0.020944415 0.023190578 -0.02654898
-0.016152462 -0.022033187 -0.017600298 0.030929305 0.0132888695 0.027689213 -0.03540964 -0.025752313
0.041924167 0.053614013 -0.021413123 -0.008680079 0.048769206 0.034637596 -0.0013846211 -0.00079935486
-0.0003729542 -0.003072172 -0.029691307 -0.00015231375 -0.025787797 0.012959049 -0.056359705 0.042580333
0.06289753 0.08643382 0.07733957 -0.040297773 0.08222093 0.005349481 0.04220019 0.053218156
0.09143022 0.10738315 0.02685112 0.08616124 0.009276949 0.043186486 -0.036289655 0.020276854
-0.042186707 -0.03552358 0.038563702 0.050271075 -0.07187379 0.018334532 0.026855137 -0.09981023
-0.032535207 0.0020525155 -0.06961588 -0.06053859 -0.038706668 -0.06353167 0.044310715 -0.030865025
0.016938036 -0.013067789 0.038558323 -0.063272186 0.024253936 0.019259263 0.064817704 -0.04243586
0.069515295 0.03870692 -0.017459758 -0.013069972 -0.03587933 -0.033337366 0.0484573 0.024473267
0.0050209556 0.070627876 -0.030029373 0.06988441 0.045608383 -0.021394929 -0.01256899 -0.04918592
-0.0062542465 0.028552175 -0.05943574 -0.061947916 -0.03604639 -0.020062963 -0.029752525 0.0055106157
-0.062363934 0.004263414 -0.06720003 0.014136427 0.0057788445 -0.0014823948 -0.057195034 0.0018756319
-0.00034368443 0.021720862 0.015058731 0.045513548 -0.010541118 -0.008777407 -0.025461366 -0.066603296
0.044295337 0.02156221 -0.028818673 -0.059041392 0.028098116 -0.012595042 -0.0083834315 -0.06014439
0.011270478 -0.02921867 -0.0005589843 0.03085379 -0.07232536 -0.022034872 0.0087971985 -0.017813591
-0.055777747 -0.008698171 -0.009477296 0.010360953 0.09215369 0.00073865213 0.04901352 0.054852836
-0.06979567 0.053204585 0.026469277 0.029999014 -0.020711392 -0.017587049 0.01787425 0.047727115
0.020895246 -0.01004288 -0.021995137 -0.027822303 -0.037155762 0.0011981163 -0.001458465 -0.05832966
00000000: 7d0a b03b 0515 7b3d 3300 403d bd91 1a3d
00000010: 0b76 423d 8a58 243d e5b0 8bbd 8716 173d
00000020: da4a a3bd fa6b 1b3d db27 17bd 9707 b63d
00000030: 8bc6 06bd 3452 1d3d fc45 14bd 882a 033c
00000040: 0201 de3c 1f3c 7ebc fef5 97bc 2ceb 983c
00000050: 1645 d33c f722 38b9 31fd 82bd 7d98 393b
00000060: 3e81 34bd 79b2 ae3c 6758 3e3c 104f 223d
00000070: 0bb8 073d 40a1 f6bc bb32 39bd aa49 34bd
00000080: 2679 babb 019e d83c 7292 213d a6a2 7bbd
00000090: e841 d5bc d251 57bc afdb 31bd 187b ba3c
000000a0: 7df2 a73c 07d8 6a3c 6861 d63c f37a 433d
000000b0: 0f01 dabc 8207 7a3b 97a2 8ebc 2736 063c
000000c0: 83ec ce3b b3d4 6bbb 443e a7bc a453 60bd
000000d0: d54b b7bb 50fb d0bb 877e 08bd a3b6 89bb
000000e0: c180 593b af7e ac3c 1ea5 f73c 3ec1 4e3d
000000f0: 6552 acbb 9484 22bd 2dea 203c 049f f73c
00000100: e6c7 a0bd 9ef3 5fbd 8cf0 fe3c a41c 46bd
00000110: 5610 ed3c 106b 84bc 335b 953c 0feb 04bd
00000120: 8dd0 86bd 8f29 113d 5a9a 11bd 408c 48bc
00000130: 2ea4 42bc 82b6 8ebd 1a3c 34bd 05de 583d
00000140: 2811 6ebd 8244 13bc 27db 29bd 73e4 3cbd
00000150: be15 00bd 5797 433d 666e adba 5835 69bd
00000160: f3e1 c7bc de52 023d 2d1e 54bd eda7 b83c
00000170: 8a2f 393d 71e6 06bd 775c 11bd 4cb2 f63c
00000180: 87c2 823c e79b c23c e82a 4e3d ed3d d7bc
00000190: 4a11 033d 4193 a9bc caa0 a6bd 3db4 d03c
000001a0: c365 dcbb c5be 9fbc cc19 f5bc e738 d3bc
000001b0: b251 383d 9f93 ab3c 2bfa bd3c 3f7d d9bc
000001c0: 2b52 84bc f17e b4bc 802e 90bc 745f fd3c
000001d0: 8fb9 593c 7dd4 e23c b309 11bd 84f6 d2bc
000001e0: adb8 2b3d 5e9a 5b3d 936a afbc e436 0ebc
000001f0: 38c2 473d 27e0 0d3d 2d7c b5ba cc8b 51ba
00000200: 1189 c3b9 7e56 49bb 2f3b f3bc 69b6 1fb9
00000210: ee40 d3bc 3152 543c 6fd9 66bd b768 2e3d
00000220: 6cd0 803d 3704 b13d 3564 9e3d 470f 25bd
00000230: 7263 a83d b34a af3b 1bda 2c3d 48fb 593d
00000240: c43f bb3d b2eb db3d e1f6 db3c 4e75 b03d
00000250: 58fe 173c 50e4 303d 76a4 14bd a51b a63c
00000260: f8cb 2cbd 2c81 11bd f9f4 1d3d 0be9 4d3d
00000270: 9132 93bd 4d32 963c 4eff db3c 4e69 ccbd
00000280: a343 05bd 7f83 063b c592 8ebd 50f7 77bd
00000290: e28a 1ebd e41c 82bd 277f 353d a6d8 fcbc
000002a0: a3c1 8a3c 481a 56bc 55ef 1d3d d994 81bd
000002b0: 31b0 c63c 9ac5 9d3c 25bf 843d 39d1 2dbd
000002c0: 095e 8e3d 268b 1e3d c407 8fbc 7023 56bc
000002d0: 34f6 12bd c38c 08bd 297b 463d 297c c83c
000002e0: d486 a43b 59a5 903d 2900 f6bc 8f1f 8f3d
000002f0: dbcf 3a3d 6b44 afbc 2aee 4dbc 2d77 49bd
00000300: 6cf0 ccbb 40e6 e93c e472 73bd 19bd 7dbd
00000310: 61a5 13bd 155b a4bc 91bb f3bc 6592 b43b
00000320: 5371 7fbd 1cb4 8b3b 2ba0 89bd 799c 673c
00000330: 765c bd3b ea4c c2ba 5745 6abd c3d7 f53a
00000340: 8b30 b4b9 f3ef b13c e5b8 763c 6a6c 3a3d
00000350: a7b4 2cbc 1dcf 0fbc 5b94 d0bc 4f67 88bd
00000360: 076f 353d 3ba3 b03c 2315 ecbc 63d5 71bd
00000370: 052e e63c 6f5b 4ebc a95a 09bc f759 76bd
00000380: d0a7 383c fe5b efbc cd88 12ba 16c1 fc3c
00000390: 511f 94bd 7a82 b4bc 2022 103c cfed 91bc
000003a0: 3577 64bd c682 0ebc a946 1bbc fdc0 293c
000003b0: 13bb bc3d 1ba2 413a 67c2 483d 5ead 603d
000003c0: 08f1 8ebd 0ded 593d 19d6 d83c 7ec0 f53c
000003d0: f0aa a9bc b712 90bc 056d 923c 827d 433d
000003e0: 822c ab3c e48a 24bc 252f b4bc 99eb e3bc
000003f0: a430 18bd 1d0a 9d3a f729 bfba 15eb 6ebd

bias f4 [10]
0.050620455 0.026752442 -0.023360515 0.033865433 0.06509431 -0.023491003 -0.019853318 0.05200419
0.025904723 -0.036416408
00000000: 6557 4f3d f027 db3c 8d5e bfbc 7bb6 0a3d
00000010: 2a50 853d 3470 c0bc 6da3 a2bc 5802 553d
00000020: 2436 d43c 5f29 15bd

weight f4 [10]
0.977964 0.9863267 1.0099915 1.0145793 1.009372 1.0123656 1.0150497 0.99846745
0.98995644 0.9923007
00000000: d95b 7a3f e87f 7c3f 6747 813f bcdd 813f
00000010: 1a33 813f 3295 813f 26ed 813f 909b 7f3f
00000020: c96d 7d3f 6b07 7e3f

bias f4 [10]
0.0045117238 0.0072586136 0.0049196235 0.0069847326 -0.002243014 -0.0034910562 0.00076705404 -0.0048070606
0.0053611193 0.011121431
00000000: 15d7 933b aad9 ed3b cb34 a13b 2fe0 e43b
00000010: 88ff 12bb 34ca 64bb 2014 493a 8c84 9dbb
00000020: 54ac af3b aa36 363c

running_mean f4 [10]
0.44015467 0.3179397 0.40787435 0.7154191 0.46147823 0.5956325 0.43180212 0.4458848
0.4984981 0.25794193
00000000: f45b e13e fec8 a23e e8d4 d03e b525 373f
00000010: e046 ec3e 5f7b 183f 2b15 dd3e 034b e43e
00000020: 253b ff3e f710 843e

running_var f4 [10]
0.28283668 0.4638788 0.3795389 0.6686014 0.6881455 0.5983987 0.28386253 0.64153266
0.79099566 0.43575314
00000000: f8cf 903e 8681 ed3e ec52 c23e 7629 2b3f
00000010: 4e2a 303f a830 193f 6e56 913e 7c3b 243f
00000020: b17e 4a3f 091b df3e

weight f4 [10, 10, 1, 1]
-0.12872091 -0.047173113 -0.25210908 0.14450201 0.10297109 0.24494861 0.3049725 -0.15392317
-0.14993271 -0.041085675 -0.16057424 -0.26716152 0.082915515 0.3399743 0.08643015 0.20040461
0.10015625 -0.30132455 -0.28408405 -0.2747727 0.05251912 -0.05850964 0.12168233 0.060801417
-0.30749464 0.19071637 -0.1456776 0.23183839 -0.17905577 -0.14607237 0.04244787 -0.09008569
-0.31485254 0.054912582 0.052981257 0.30912 -0.18820146 -0.14127906 -0.2513334 -0.30920258
-0.041084066 0.30605274 0.1332149 0.055031557 -0.29960886 -0.28259405 -0.2392012 0.23489347
-0.08365622 0.16893925 -0.10122818 0.20882851 -0.004104215 0.26282814 0.04963215 -0.077734426
0.06513576 -0.2919062 0.14744493 -0.12126898 0.15245065 0.09255421 0.08805737 -0.016201656
0.16926882 0.18085027 -0.1762005 -0.02010951 0.31113046 0.25775218 0.23874171 -0.0810338
-0.00690852 -0.103545874 -0.18108734 -0.105729096 -0.3223553 -0.31043747 -0.26642838 0.11233424
-0.17830078 0.09331274 -0.040999256 -0.008080569 0.16751882 0.13840732 0.07902383 -0.0061996295
-0.12649292 -0.051444832 -0.30676338 0.27855664 -0.037528016 -0.22961006 -0.1042186 -0.23728907
-0.16728763 0.060969412 0.039318442 -0.23889035
00000000: 6acf 03be 9838 41bd 7114 81be 56f8 133e
00000010: 82e2 d23d cfd3 7a3e 5b25 9c3e 099e 1dbe
00000020: f687 19be 7449 28bd 936d 24be 65c9 88be
00000030: 9ccf a93d 1d11 ae3e 4a02 b13d de36 4d3e
00000040: b81e cd3d 3647 9abe 7773 91be 02af 8cbe
00000050: 4a1e 573d cea7 6fbd 9634 f93d e80a 793d
00000060: f06f 9dbe 274b 433e 822c 15be 0b67 6d3e
00000070: 655a 37be ff93 15be d1dd 2d3d d97e b8bd
00000080: 5a34 a1be 04ec 603d e002 593d fa44 9e3e
00000090: e2b7 40be 75ab 10be c5ae 80be cd4f 9ebe
000000a0: c447 28bd f2b2 9c3e 7d69 083e c568 613d
000000b0: 5566 99be 2bb0 90be 29f1 74be ea87 703e
000000c0: f453 abbd 69fe 2c3e b850 cfbd 24d7 553e
000000d0: a77c 86bb 6991 863e 154b 4b3d 3a33 9fbd
000000e0: e665 853d bb74 95be cefb 163e df5b f8bd
000000f0: 061c 1c3e 108d bd3d 6c57 b43d 56b9 84bc
00000100: ce54 2d3e d030 393e e76d 34be b3bc a4bc
00000110: 7e4c 9f3e 18f8 833e b578 743e 0df5 a5bd
00000120: de60 e2bb dc0f d4bd f66e 39be 7f88 d8bd
00000130: c10b a5be a9f1 9ebe 4d69 88be 7e0f e63d
00000140: 7b94 36be c01a bf3d d6ee 27bd 5d64 04bc
00000150: 0e8a 2b3e a6ba 0d3e 3fd7 a13d 4326 cbbb
00000160: 5c87 01be d1b7 52bd 1710 9dbe fa9e 8e3e
00000170: fab6 19bd e61e 6bbe 9070 d5bd e8fb 72be
00000180: 734d 2bbe 10bb 793d 600c 213d ac9f 74be

bias f4 [10]
-0.14456937 -0.103068635 0.049630024 -0.20597507 -0.18203512 0.12645507 -0.19790277 -0.2627249
0.24460298 0.29629955
00000000: fe09 14be a615 d3bd da48 4b3d 21eb 52be
00000010: 6a67 3abe 707d 013e 06a7 4abe e183 86be
00000020: 3479 7a3e 93b4 973e
